<?xml version="1.0"?>
<net name="Model0" version="11">
	<layers>
		<layer id="3" name="input_ids" type="Parameter" version="opset1">
			<data shape="?,?" element_type="i64" />
			<output>
				<port id="0" precision="I64" names="input_ids">
					<dim>-1</dim>
					<dim>-1</dim>
				</port>
			</output>
		</layer>
		<layer id="2" name="attention_mask" type="Parameter" version="opset1">
			<data shape="?,?" element_type="i64" />
			<output>
				<port id="0" precision="I64" names="attention_mask">
					<dim>-1</dim>
					<dim>-1</dim>
				</port>
			</output>
		</layer>
		<layer id="1" name="position_ids" type="Parameter" version="opset1">
			<data shape="?,?" element_type="i64" />
			<output>
				<port id="0" precision="I64" names="position_ids">
					<dim>-1</dim>
					<dim>-1</dim>
				</port>
			</output>
		</layer>
		<layer id="0" name="beam_idx" type="Parameter" version="opset1">
			<data shape="?" element_type="i32" />
			<output>
				<port id="0" precision="I32" names="beam_idx">
					<dim>-1</dim>
				</port>
			</output>
		</layer>
		<layer id="4" name="Constant_67502" type="Const" version="opset1">
			<data element_type="f32" shape="" offset="0" size="4" />
			<output>
				<port id="0" precision="FP32" />
			</output>
		</layer>
		<layer id="5" name="ShapeOf_67488" type="ShapeOf" version="opset3">
			<data output_type="i64" />
			<input>
				<port id="0" precision="I64">
					<dim>-1</dim>
					<dim>-1</dim>
				</port>
			</input>
			<output>
				<port id="1" precision="I64">
					<dim>2</dim>
				</port>
			</output>
		</layer>
		<layer id="6" name="Constant_67490" type="Const" version="opset1">
			<data element_type="i64" shape="1" offset="4" size="8" />
			<output>
				<port id="0" precision="I64">
					<dim>1</dim>
				</port>
			</output>
		</layer>
		<layer id="7" name="Constant_67492" type="Const" version="opset1">
			<data element_type="i64" shape="" offset="4" size="8" />
			<output>
				<port id="0" precision="I64" />
			</output>
		</layer>
		<layer id="8" name="Gather_67493" type="Gather" version="opset8">
			<data batch_dims="0" />
			<input>
				<port id="0" precision="I64">
					<dim>2</dim>
				</port>
				<port id="1" precision="I64">
					<dim>1</dim>
				</port>
				<port id="2" precision="I64" />
			</input>
			<output>
				<port id="3" precision="I64">
					<dim>1</dim>
				</port>
			</output>
		</layer>
		<layer id="9" name="Constant_67495" type="Const" version="opset1">
			<data element_type="i64" shape="1" offset="12" size="8" />
			<output>
				<port id="0" precision="I64">
					<dim>1</dim>
				</port>
			</output>
		</layer>
		<layer id="10" name="Constant_67497" type="Const" version="opset1">
			<data element_type="i64" shape="1" offset="4" size="8" />
			<output>
				<port id="0" precision="I64">
					<dim>1</dim>
				</port>
			</output>
		</layer>
		<layer id="11" name="Constant_67499" type="Const" version="opset1">
			<data element_type="i64" shape="1" offset="20" size="8" />
			<output>
				<port id="0" precision="I64">
					<dim>1</dim>
				</port>
			</output>
		</layer>
		<layer id="12" name="Concat_67500" type="Concat" version="opset1">
			<data axis="0" />
			<input>
				<port id="0" precision="I64">
					<dim>1</dim>
				</port>
				<port id="1" precision="I64">
					<dim>1</dim>
				</port>
				<port id="2" precision="I64">
					<dim>1</dim>
				</port>
				<port id="3" precision="I64">
					<dim>1</dim>
				</port>
			</input>
			<output>
				<port id="4" precision="I64">
					<dim>4</dim>
				</port>
			</output>
		</layer>
		<layer id="13" name="Broadcast_67503" type="Broadcast" version="opset3">
			<data mode="numpy" />
			<input>
				<port id="0" precision="FP32" />
				<port id="1" precision="I64">
					<dim>4</dim>
				</port>
			</input>
			<output>
				<port id="2" precision="FP32">
					<dim>-1</dim>
					<dim>4</dim>
					<dim>0</dim>
					<dim>64</dim>
				</port>
			</output>
		</layer>
		<layer id="14" name="ReadValue_67100" type="ReadValue" version="opset6">
			<data variable_id="past_key_values.9.valuepresent.9.value" variable_type="f32" variable_shape="?,4,?,64" />
			<input>
				<port id="0" precision="FP32">
					<dim>-1</dim>
					<dim>4</dim>
					<dim>0</dim>
					<dim>64</dim>
				</port>
			</input>
			<output>
				<port id="1" precision="FP32" names="past_key_values.9.value">
					<dim>-1</dim>
					<dim>4</dim>
					<dim>-1</dim>
					<dim>64</dim>
				</port>
			</output>
		</layer>
		<layer id="15" name="Constant_66554" type="Const" version="opset1">
			<data element_type="i64" shape="" offset="4" size="8" />
			<output>
				<port id="0" precision="I64" />
			</output>
		</layer>
		<layer id="16" name="Gather_66555" type="Gather" version="opset8">
			<data batch_dims="0" />
			<input>
				<port id="0" precision="FP32">
					<dim>-1</dim>
					<dim>4</dim>
					<dim>-1</dim>
					<dim>64</dim>
				</port>
				<port id="1" precision="I32">
					<dim>-1</dim>
				</port>
				<port id="2" precision="I64" />
			</input>
			<output>
				<port id="3" precision="FP32">
					<dim>-1</dim>
					<dim>4</dim>
					<dim>-1</dim>
					<dim>64</dim>
				</port>
			</output>
		</layer>
		<layer id="17" name="Constant_58302" type="Const" version="opset1">
			<data element_type="f32" shape="1, 1, 2048" offset="28" size="8192" />
			<output>
				<port id="0" precision="FP32">
					<dim>1</dim>
					<dim>1</dim>
					<dim>2048</dim>
				</port>
			</output>
		</layer>
		<layer id="18" name="self.model.embed_tokens.weight" type="Const" version="opset1">
			<data element_type="u8" shape="32000, 2048" offset="8220" size="65536000" />
			<output>
				<port id="0" precision="U8">
					<dim>32000</dim>
					<dim>2048</dim>
				</port>
			</output>
		</layer>
		<layer id="19" name="Convert_84383" type="Convert" version="opset1">
			<data destination_type="f16" />
			<input>
				<port id="0" precision="U8">
					<dim>32000</dim>
					<dim>2048</dim>
				</port>
			</input>
			<output>
				<port id="1" precision="FP16">
					<dim>32000</dim>
					<dim>2048</dim>
				</port>
			</output>
		</layer>
		<layer id="20" name="self.model.embed_tokens.weight/zero_point" type="Const" version="opset1">
			<data element_type="u8" shape="32000, 1" offset="65544220" size="32000" />
			<output>
				<port id="0" precision="U8">
					<dim>32000</dim>
					<dim>1</dim>
				</port>
			</output>
		</layer>
		<layer id="21" name="Convert_84386" type="Convert" version="opset1">
			<data destination_type="f16" />
			<input>
				<port id="0" precision="U8">
					<dim>32000</dim>
					<dim>1</dim>
				</port>
			</input>
			<output>
				<port id="1" precision="FP16">
					<dim>32000</dim>
					<dim>1</dim>
				</port>
			</output>
		</layer>
		<layer id="22" name="self.model.embed_tokens.weight/zero_point/subtract" type="Subtract" version="opset1">
			<data auto_broadcast="numpy" />
			<input>
				<port id="0" precision="FP16">
					<dim>32000</dim>
					<dim>2048</dim>
				</port>
				<port id="1" precision="FP16">
					<dim>32000</dim>
					<dim>1</dim>
				</port>
			</input>
			<output>
				<port id="2" precision="FP16">
					<dim>32000</dim>
					<dim>2048</dim>
				</port>
			</output>
		</layer>
		<layer id="23" name="self.model.embed_tokens.weight/scale" type="Const" version="opset1">
			<data element_type="f16" shape="32000, 1" offset="65576220" size="64000" />
			<output>
				<port id="0" precision="FP16">
					<dim>32000</dim>
					<dim>1</dim>
				</port>
			</output>
		</layer>
		<layer id="24" name="self.model.embed_tokens.weight/fq_weights_0" type="Multiply" version="opset1">
			<data auto_broadcast="numpy" />
			<input>
				<port id="0" precision="FP16">
					<dim>32000</dim>
					<dim>2048</dim>
				</port>
				<port id="1" precision="FP16">
					<dim>32000</dim>
					<dim>1</dim>
				</port>
			</input>
			<output>
				<port id="2" precision="FP16">
					<dim>32000</dim>
					<dim>2048</dim>
				</port>
			</output>
		</layer>
		<layer id="25" name="__module.model.embed_tokens/ov_ext::embedding/Convert" type="Convert" version="opset1">
			<data destination_type="f32" />
			<rt_info>
				<attribute name="decompression" version="0" />
			</rt_info>
			<input>
				<port id="0" precision="FP16">
					<dim>32000</dim>
					<dim>2048</dim>
				</port>
			</input>
			<output>
				<port id="1" precision="FP32">
					<dim>32000</dim>
					<dim>2048</dim>
				</port>
			</output>
		</layer>
		<layer id="26" name="__module.model.embed_tokens/ov_ext::embedding/Convert_1" type="Convert" version="opset1">
			<data destination_type="i32" />
			<input>
				<port id="0" precision="I64">
					<dim>-1</dim>
					<dim>-1</dim>
				</port>
			</input>
			<output>
				<port id="1" precision="I32">
					<dim>-1</dim>
					<dim>-1</dim>
				</port>
			</output>
		</layer>
		<layer id="27" name="__module.model.embed_tokens/ov_ext::embedding/Constant" type="Const" version="opset1">
			<data element_type="i32" shape="" offset="0" size="4" />
			<output>
				<port id="0" precision="I32" />
			</output>
		</layer>
		<layer id="28" name="__module.model.embed_tokens/ov_ext::embedding/Gather" type="Gather" version="opset8">
			<data batch_dims="0" />
			<input>
				<port id="0" precision="FP32">
					<dim>32000</dim>
					<dim>2048</dim>
				</port>
				<port id="1" precision="I32">
					<dim>-1</dim>
					<dim>-1</dim>
				</port>
				<port id="2" precision="I32" />
			</input>
			<output>
				<port id="3" precision="FP32" names="232,314,325,hidden_states.1,inputs_embeds">
					<dim>-1</dim>
					<dim>-1</dim>
					<dim>2048</dim>
				</port>
			</output>
		</layer>
		<layer id="29" name="Constant_58230" type="Const" version="opset1">
			<data element_type="f32" shape="1, 1, 2048" offset="65640220" size="8192" />
			<output>
				<port id="0" precision="FP32">
					<dim>1</dim>
					<dim>1</dim>
					<dim>2048</dim>
				</port>
			</output>
		</layer>
		<layer id="30" name="Constant_58229" type="Const" version="opset1">
			<data element_type="f32" shape="1, 1, 1" offset="65648412" size="4" />
			<output>
				<port id="0" precision="FP32">
					<dim>1</dim>
					<dim>1</dim>
					<dim>1</dim>
				</port>
			</output>
		</layer>
		<layer id="31" name="Constant_58227" type="Const" version="opset1">
			<data element_type="f32" shape="1, 1, 1" offset="65648416" size="4" />
			<output>
				<port id="0" precision="FP32">
					<dim>1</dim>
					<dim>1</dim>
					<dim>1</dim>
				</port>
			</output>
		</layer>
		<layer id="32" name="__module.model.layers.0.input_layernorm/aten::pow/Power" type="Power" version="opset1">
			<data auto_broadcast="numpy" />
			<input>
				<port id="0" precision="FP32">
					<dim>-1</dim>
					<dim>-1</dim>
					<dim>2048</dim>
				</port>
				<port id="1" precision="FP32">
					<dim>1</dim>
					<dim>1</dim>
					<dim>1</dim>
				</port>
			</input>
			<output>
				<port id="2" precision="FP32" names="315">
					<dim>-1</dim>
					<dim>-1</dim>
					<dim>2048</dim>
				</port>
			</output>
		</layer>
		<layer id="33" name="Constant_381" type="Const" version="opset1">
			<data element_type="i64" shape="1" offset="65648420" size="8" />
			<output>
				<port id="0" precision="I64" names="316">
					<dim>1</dim>
				</port>
			</output>
		</layer>
		<layer id="34" name="__module.model.layers.0.input_layernorm/aten::mean/ReduceMean" type="ReduceMean" version="opset1">
			<data keep_dims="true" />
			<input>
				<port id="0" precision="FP32">
					<dim>-1</dim>
					<dim>-1</dim>
					<dim>2048</dim>
				</port>
				<port id="1" precision="I64">
					<dim>1</dim>
				</port>
			</input>
			<output>
				<port id="2" precision="FP32" names="317,variance.1">
					<dim>-1</dim>
					<dim>-1</dim>
					<dim>1</dim>
				</port>
			</output>
		</layer>
		<layer id="35" name="Constant_58228" type="Const" version="opset1">
			<data element_type="f32" shape="1, 1, 1" offset="65648428" size="4" />
			<output>
				<port id="0" precision="FP32">
					<dim>1</dim>
					<dim>1</dim>
					<dim>1</dim>
				</port>
			</output>
		</layer>
		<layer id="36" name="__module.model.layers.0.input_layernorm/aten::add/Add" type="Add" version="opset1">
			<data auto_broadcast="numpy" />
			<input>
				<port id="0" precision="FP32">
					<dim>-1</dim>
					<dim>-1</dim>
					<dim>1</dim>
				</port>
				<port id="1" precision="FP32">
					<dim>1</dim>
					<dim>1</dim>
					<dim>1</dim>
				</port>
			</input>
			<output>
				<port id="2" precision="FP32" names="318">
					<dim>-1</dim>
					<dim>-1</dim>
					<dim>1</dim>
				</port>
			</output>
		</layer>
		<layer id="37" name="__module.model.layers.0.input_layernorm/aten::rsqrt/Sqrt" type="Sqrt" version="opset1">
			<input>
				<port id="0" precision="FP32">
					<dim>-1</dim>
					<dim>-1</dim>
					<dim>1</dim>
				</port>
			</input>
			<output>
				<port id="1" precision="FP32">
					<dim>-1</dim>
					<dim>-1</dim>
					<dim>1</dim>
				</port>
			</output>
		</layer>
		<layer id="38" name="__module.model.layers.0.input_layernorm/aten::rsqrt/Divide" type="Divide" version="opset1">
			<data auto_broadcast="numpy" m_pythondiv="true" />
			<input>
				<port id="0" precision="FP32">
					<dim>1</dim>
					<dim>1</dim>
					<dim>1</dim>
				</port>
				<port id="1" precision="FP32">
					<dim>-1</dim>
					<dim>-1</dim>
					<dim>1</dim>
				</port>
			</input>
			<output>
				<port id="2" precision="FP32" names="319">
					<dim>-1</dim>
					<dim>-1</dim>
					<dim>1</dim>
				</port>
			</output>
		</layer>
		<layer id="39" name="__module.model.layers.0.input_layernorm/aten::mul/Multiply" type="Multiply" version="opset1">
			<data auto_broadcast="numpy" />
			<input>
				<port id="0" precision="FP32">
					<dim>-1</dim>
					<dim>-1</dim>
					<dim>2048</dim>
				</port>
				<port id="1" precision="FP32">
					<dim>-1</dim>
					<dim>-1</dim>
					<dim>1</dim>
				</port>
			</input>
			<output>
				<port id="2" precision="FP32" names="320,321,hidden_states.3,hidden_states.5">
					<dim>-1</dim>
					<dim>-1</dim>
					<dim>2048</dim>
				</port>
			</output>
		</layer>
		<layer id="40" name="__module.model.layers.0.input_layernorm/aten::mul/Multiply_1" type="Multiply" version="opset1">
			<data auto_broadcast="numpy" />
			<input>
				<port id="0" precision="FP32">
					<dim>1</dim>
					<dim>1</dim>
					<dim>2048</dim>
				</port>
				<port id="1" precision="FP32">
					<dim>-1</dim>
					<dim>-1</dim>
					<dim>2048</dim>
				</port>
			</input>
			<output>
				<port id="2" precision="FP32" names="322,324,hidden_states.7">
					<dim>-1</dim>
					<dim>-1</dim>
					<dim>2048</dim>
				</port>
			</output>
		</layer>
		<layer id="41" name="self.model.layers.0.self_attn.q_proj.weight" type="Const" version="opset1">
			<data element_type="u4" shape="2048, 32, 64" offset="65648432" size="2097152" />
			<output>
				<port id="0" precision="U4">
					<dim>2048</dim>
					<dim>32</dim>
					<dim>64</dim>
				</port>
			</output>
		</layer>
		<layer id="42" name="Convert_409621" type="Convert" version="opset1">
			<data destination_type="f16" />
			<input>
				<port id="0" precision="U4">
					<dim>2048</dim>
					<dim>32</dim>
					<dim>64</dim>
				</port>
			</input>
			<output>
				<port id="1" precision="FP16">
					<dim>2048</dim>
					<dim>32</dim>
					<dim>64</dim>
				</port>
			</output>
		</layer>
		<layer id="43" name="self.model.layers.0.self_attn.q_proj.weight/zero_point" type="Const" version="opset1">
			<data element_type="u4" shape="2048, 32, 1" offset="67745584" size="32768" />
			<output>
				<port id="0" precision="U4">
					<dim>2048</dim>
					<dim>32</dim>
					<dim>1</dim>
				</port>
			</output>
		</layer>
		<layer id="44" name="Convert_409624" type="Convert" version="opset1">
			<data destination_type="f16" />
			<input>
				<port id="0" precision="U4">
					<dim>2048</dim>
					<dim>32</dim>
					<dim>1</dim>
				</port>
			</input>
			<output>
				<port id="1" precision="FP16">
					<dim>2048</dim>
					<dim>32</dim>
					<dim>1</dim>
				</port>
			</output>
		</layer>
		<layer id="45" name="self.model.layers.0.self_attn.q_proj.weight/zero_point/subtract" type="Subtract" version="opset1">
			<data auto_broadcast="numpy" />
			<input>
				<port id="0" precision="FP16">
					<dim>2048</dim>
					<dim>32</dim>
					<dim>64</dim>
				</port>
				<port id="1" precision="FP16">
					<dim>2048</dim>
					<dim>32</dim>
					<dim>1</dim>
				</port>
			</input>
			<output>
				<port id="2" precision="FP16">
					<dim>2048</dim>
					<dim>32</dim>
					<dim>64</dim>
				</port>
			</output>
		</layer>
		<layer id="46" name="self.model.layers.0.self_attn.q_proj.weight/scale" type="Const" version="opset1">
			<data element_type="f16" shape="2048, 32, 1" offset="67778352" size="131072" />
			<output>
				<port id="0" precision="FP16">
					<dim>2048</dim>
					<dim>32</dim>
					<dim>1</dim>
				</port>
			</output>
		</layer>
		<layer id="47" name="self.model.layers.0.self_attn.q_proj.weight/fq_weights_1" type="Multiply" version="opset1">
			<data auto_broadcast="numpy" />
			<input>
				<port id="0" precision="FP16">
					<dim>2048</dim>
					<dim>32</dim>
					<dim>64</dim>
				</port>
				<port id="1" precision="FP16">
					<dim>2048</dim>
					<dim>32</dim>
					<dim>1</dim>
				</port>
			</input>
			<output>
				<port id="2" precision="FP16">
					<dim>2048</dim>
					<dim>32</dim>
					<dim>64</dim>
				</port>
			</output>
		</layer>
		<layer id="48" name="Constant_409629" type="Const" version="opset1">
			<data element_type="i64" shape="2" offset="67909424" size="16" />
			<output>
				<port id="0" precision="I64">
					<dim>2</dim>
				</port>
			</output>
		</layer>
		<layer id="49" name="Reshape_409630" type="Reshape" version="opset1">
			<data special_zero="false" />
			<input>
				<port id="0" precision="FP16">
					<dim>2048</dim>
					<dim>32</dim>
					<dim>64</dim>
				</port>
				<port id="1" precision="I64">
					<dim>2</dim>
				</port>
			</input>
			<output>
				<port id="2" precision="FP16">
					<dim>2048</dim>
					<dim>2048</dim>
				</port>
			</output>
		</layer>
		<layer id="50" name="__module.model.layers.0.self_attn.q_proj/ov_ext::linear/Convert" type="Convert" version="opset1">
			<data destination_type="f32" />
			<rt_info>
				<attribute name="decompression" version="0" />
			</rt_info>
			<input>
				<port id="0" precision="FP16">
					<dim>2048</dim>
					<dim>2048</dim>
				</port>
			</input>
			<output>
				<port id="1" precision="FP32">
					<dim>2048</dim>
					<dim>2048</dim>
				</port>
			</output>
		</layer>
		<layer id="51" name="__module.model.layers.0.self_attn.q_proj/ov_ext::linear/MatMul" type="MatMul" version="opset1">
			<data transpose_a="false" transpose_b="true" />
			<input>
				<port id="0" precision="FP32">
					<dim>-1</dim>
					<dim>-1</dim>
					<dim>2048</dim>
				</port>
				<port id="1" precision="FP32">
					<dim>2048</dim>
					<dim>2048</dim>
				</port>
			</input>
			<output>
				<port id="2" precision="FP32" names="333">
					<dim>-1</dim>
					<dim>-1</dim>
					<dim>2048</dim>
				</port>
			</output>
		</layer>
		<layer id="52" name="Constant_64980" type="Const" version="opset1">
			<data element_type="i64" shape="4" offset="67909440" size="32" />
			<output>
				<port id="0" precision="I64">
					<dim>4</dim>
				</port>
			</output>
		</layer>
		<layer id="53" name="__module.model.layers.0.self_attn/aten::view/Reshape" type="Reshape" version="opset1">
			<data special_zero="true" />
			<input>
				<port id="0" precision="FP32">
					<dim>-1</dim>
					<dim>-1</dim>
					<dim>2048</dim>
				</port>
				<port id="1" precision="I64">
					<dim>4</dim>
				</port>
			</input>
			<output>
				<port id="2" precision="FP32" names="335">
					<dim>-1</dim>
					<dim>-1</dim>
					<dim>32</dim>
					<dim>64</dim>
				</port>
			</output>
		</layer>
		<layer id="54" name="__module.model.layers.0.self_attn/aten::transpose/Constant" type="Const" version="opset1">
			<data element_type="i32" shape="4" offset="67909472" size="16" />
			<output>
				<port id="0" precision="I32">
					<dim>4</dim>
				</port>
			</output>
		</layer>
		<layer id="55" name="__module.model.layers.0.self_attn/aten::transpose/Transpose" type="Transpose" version="opset1">
			<input>
				<port id="0" precision="FP32">
					<dim>-1</dim>
					<dim>-1</dim>
					<dim>32</dim>
					<dim>64</dim>
				</port>
				<port id="1" precision="I32">
					<dim>4</dim>
				</port>
			</input>
			<output>
				<port id="2" precision="FP32" names="336,q.1">
					<dim>-1</dim>
					<dim>32</dim>
					<dim>-1</dim>
					<dim>64</dim>
				</port>
			</output>
		</layer>
		<layer id="56" name="__module.model.rotary_emb/aten::to/Convert" type="Const" version="opset1">
			<data element_type="f32" shape="1, 32, 1" offset="67909488" size="128" />
			<output>
				<port id="0" precision="FP32" names="285">
					<dim>1</dim>
					<dim>32</dim>
					<dim>1</dim>
				</port>
			</output>
		</layer>
		<layer id="57" name="ShapeOf_59697" type="ShapeOf" version="opset3">
			<data output_type="i64" />
			<input>
				<port id="0" precision="FP32">
					<dim>-1</dim>
					<dim>-1</dim>
					<dim>2048</dim>
				</port>
			</input>
			<output>
				<port id="1" precision="I64">
					<dim>3</dim>
				</port>
			</output>
		</layer>
		<layer id="58" name="Constant_59698" type="Const" version="opset1">
			<data element_type="i64" shape="1" offset="4" size="8" />
			<output>
				<port id="0" precision="I64">
					<dim>1</dim>
				</port>
			</output>
		</layer>
		<layer id="59" name="Constant_59699" type="Const" version="opset1">
			<data element_type="i64" shape="" offset="4" size="8" />
			<output>
				<port id="0" precision="I64" />
			</output>
		</layer>
		<layer id="60" name="Gather_59700" type="Gather" version="opset8">
			<data batch_dims="0" />
			<input>
				<port id="0" precision="I64">
					<dim>3</dim>
				</port>
				<port id="1" precision="I64">
					<dim>1</dim>
				</port>
				<port id="2" precision="I64" />
			</input>
			<output>
				<port id="3" precision="I64" names="1005,1021,1160,1176,1315,1331,1470,1486,1625,1641,1780,1796,1935,1951,2090,2106,2245,2261,2400,2416,2555,2571,2710,2726,286,2865,2881,3020,3036,3175,3191,3330,3346,3485,3501,3640,3656,385,401,540,556,695,711,850,866">
					<dim>1</dim>
				</port>
			</output>
		</layer>
		<layer id="61" name="Constant_51460" type="Const" version="opset1">
			<data element_type="i64" shape="1" offset="67909616" size="8" />
			<output>
				<port id="0" precision="I64">
					<dim>1</dim>
				</port>
			</output>
		</layer>
		<layer id="62" name="Constant_51462" type="Const" version="opset1">
			<data element_type="i64" shape="1" offset="67909616" size="8" />
			<output>
				<port id="0" precision="I64">
					<dim>1</dim>
				</port>
			</output>
		</layer>
		<layer id="63" name="__module.model.rotary_emb/prim::ListConstruct" type="Concat" version="opset1">
			<data axis="0" />
			<input>
				<port id="0" precision="I64">
					<dim>1</dim>
				</port>
				<port id="1" precision="I64">
					<dim>1</dim>
				</port>
				<port id="2" precision="I64">
					<dim>1</dim>
				</port>
			</input>
			<output>
				<port id="3" precision="I64">
					<dim>3</dim>
				</port>
			</output>
		</layer>
		<layer id="64" name="__module.model.rotary_emb/aten::expand/Broadcast" type="Broadcast" version="opset3">
			<data mode="bidirectional" />
			<input>
				<port id="0" precision="FP32">
					<dim>1</dim>
					<dim>32</dim>
					<dim>1</dim>
				</port>
				<port id="1" precision="I64">
					<dim>3</dim>
				</port>
			</input>
			<output>
				<port id="2" precision="FP32" names="288,289,294,inv_freq_expanded,inv_freq_expanded.1">
					<dim>-1</dim>
					<dim>32</dim>
					<dim>1</dim>
				</port>
			</output>
		</layer>
		<layer id="65" name="182" type="Const" version="opset1">
			<data element_type="i64" shape="" offset="67909616" size="8" />
			<output>
				<port id="0" precision="I64" names="182" />
			</output>
		</layer>
		<layer id="66" name="__module.model.rotary_emb/aten::unsqueeze/Unsqueeze_2" type="Unsqueeze" version="opset1">
			<input>
				<port id="0" precision="I64">
					<dim>-1</dim>
					<dim>-1</dim>
				</port>
				<port id="1" precision="I64" />
			</input>
			<output>
				<port id="2" precision="I64" names="291,292">
					<dim>-1</dim>
					<dim>1</dim>
					<dim>-1</dim>
				</port>
			</output>
		</layer>
		<layer id="67" name="__module.model.rotary_emb/aten::to/Convert_3" type="Convert" version="opset1">
			<data destination_type="f32" />
			<input>
				<port id="0" precision="I64">
					<dim>-1</dim>
					<dim>1</dim>
					<dim>-1</dim>
				</port>
			</input>
			<output>
				<port id="1" precision="FP32" names="293,295,position_ids_expanded,position_ids_expanded.1">
					<dim>-1</dim>
					<dim>1</dim>
					<dim>-1</dim>
				</port>
			</output>
		</layer>
		<layer id="68" name="__module.model.rotary_emb/aten::matmul/MatMul" type="MatMul" version="opset1">
			<data transpose_a="false" transpose_b="false" />
			<input>
				<port id="0" precision="FP32">
					<dim>-1</dim>
					<dim>32</dim>
					<dim>1</dim>
				</port>
				<port id="1" precision="FP32">
					<dim>-1</dim>
					<dim>1</dim>
					<dim>-1</dim>
				</port>
			</input>
			<output>
				<port id="2" precision="FP32" names="296">
					<dim>-1</dim>
					<dim>32</dim>
					<dim>-1</dim>
				</port>
			</output>
		</layer>
		<layer id="69" name="__module.model.rotary_emb/aten::transpose/Constant" type="Const" version="opset1">
			<data element_type="i32" shape="3" offset="67909624" size="12" />
			<output>
				<port id="0" precision="I32">
					<dim>3</dim>
				</port>
			</output>
		</layer>
		<layer id="70" name="__module.model.rotary_emb/aten::transpose/Transpose" type="Transpose" version="opset1">
			<input>
				<port id="0" precision="FP32">
					<dim>-1</dim>
					<dim>32</dim>
					<dim>-1</dim>
				</port>
				<port id="1" precision="I32">
					<dim>3</dim>
				</port>
			</input>
			<output>
				<port id="2" precision="FP32" names="297,freqs">
					<dim>-1</dim>
					<dim>-1</dim>
					<dim>32</dim>
				</port>
			</output>
		</layer>
		<layer id="71" name="__module.model.rotary_emb/aten::cat/Concat" type="Concat" version="opset1">
			<data axis="-1" />
			<input>
				<port id="0" precision="FP32">
					<dim>-1</dim>
					<dim>-1</dim>
					<dim>32</dim>
				</port>
				<port id="1" precision="FP32">
					<dim>-1</dim>
					<dim>-1</dim>
					<dim>32</dim>
				</port>
			</input>
			<output>
				<port id="2" precision="FP32" names="299,emb">
					<dim>-1</dim>
					<dim>-1</dim>
					<dim>64</dim>
				</port>
			</output>
		</layer>
		<layer id="72" name="__module.model.rotary_emb/aten::cos/Cos" type="Cos" version="opset1">
			<input>
				<port id="0" precision="FP32">
					<dim>-1</dim>
					<dim>-1</dim>
					<dim>64</dim>
				</port>
			</input>
			<output>
				<port id="1" precision="FP32" names="300,301,304,307,cos.1,cos.3">
					<dim>-1</dim>
					<dim>-1</dim>
					<dim>64</dim>
				</port>
			</output>
		</layer>
		<layer id="73" name="__module.model.layers.0.self_attn/aten::unsqueeze/Unsqueeze" type="Unsqueeze" version="opset1">
			<input>
				<port id="0" precision="FP32">
					<dim>-1</dim>
					<dim>-1</dim>
					<dim>64</dim>
				</port>
				<port id="1" precision="I64" />
			</input>
			<output>
				<port id="2" precision="FP32" names="1122,1277,1432,1587,1742,1897,2052,2207,2362,2517,2672,2827,2982,3137,3292,3447,347,3602,502,657,812,967,cos,cos.11,cos.13,cos.15,cos.17,cos.19,cos.21,cos.23,cos.25,cos.27,cos.29,cos.31,cos.33,cos.35,cos.37,cos.39,cos.41,cos.43,cos.45,cos.5,cos.7,cos.9">
					<dim>-1</dim>
					<dim>1</dim>
					<dim>-1</dim>
					<dim>64</dim>
				</port>
			</output>
		</layer>
		<layer id="74" name="__module.model.layers.0.self_attn/aten::mul/Multiply" type="Multiply" version="opset1">
			<data auto_broadcast="numpy" />
			<input>
				<port id="0" precision="FP32">
					<dim>-1</dim>
					<dim>32</dim>
					<dim>-1</dim>
					<dim>64</dim>
				</port>
				<port id="1" precision="FP32">
					<dim>-1</dim>
					<dim>1</dim>
					<dim>-1</dim>
					<dim>64</dim>
				</port>
			</input>
			<output>
				<port id="2" precision="FP32" names="349">
					<dim>-1</dim>
					<dim>32</dim>
					<dim>-1</dim>
					<dim>64</dim>
				</port>
			</output>
		</layer>
		<layer id="75" name="Constant_683" type="Const" version="opset1">
			<data element_type="i64" shape="1" offset="67909636" size="8" />
			<output>
				<port id="0" precision="I64">
					<dim>1</dim>
				</port>
			</output>
		</layer>
		<layer id="76" name="Constant_685" type="Const" version="opset1">
			<data element_type="i64" shape="1" offset="67909644" size="8" />
			<output>
				<port id="0" precision="I64">
					<dim>1</dim>
				</port>
			</output>
		</layer>
		<layer id="77" name="Constant_687" type="Const" version="opset1">
			<data element_type="i64" shape="1" offset="67909616" size="8" />
			<output>
				<port id="0" precision="I64">
					<dim>1</dim>
				</port>
			</output>
		</layer>
		<layer id="78" name="Constant_639" type="Const" version="opset1">
			<data element_type="i64" shape="1" offset="67909652" size="8" />
			<output>
				<port id="0" precision="I64">
					<dim>1</dim>
				</port>
			</output>
		</layer>
		<layer id="79" name="__module.model.layers.0.self_attn/aten::slice/Slice" type="Slice" version="opset8">
			<input>
				<port id="0" precision="FP32">
					<dim>-1</dim>
					<dim>32</dim>
					<dim>-1</dim>
					<dim>64</dim>
				</port>
				<port id="1" precision="I64">
					<dim>1</dim>
				</port>
				<port id="2" precision="I64">
					<dim>1</dim>
				</port>
				<port id="3" precision="I64">
					<dim>1</dim>
				</port>
				<port id="4" precision="I64">
					<dim>1</dim>
				</port>
			</input>
			<output>
				<port id="5" precision="FP32" names="359,x2.1">
					<dim>-1</dim>
					<dim>32</dim>
					<dim>-1</dim>
					<dim>32</dim>
				</port>
			</output>
		</layer>
		<layer id="80" name="__module.model.layers.0.self_attn/aten::neg/Constant" type="Const" version="opset1">
			<data element_type="i32" shape="" offset="67909660" size="4" />
			<output>
				<port id="0" precision="I32" />
			</output>
		</layer>
		<layer id="81" name="__module.model.layers.0.self_attn/aten::neg/ConvertLike" type="Convert" version="opset1">
			<data destination_type="f32" />
			<input>
				<port id="0" precision="I32" />
			</input>
			<output>
				<port id="1" precision="FP32" />
			</output>
		</layer>
		<layer id="82" name="__module.model.layers.0.self_attn/aten::neg/Multiply" type="Multiply" version="opset1">
			<data auto_broadcast="numpy" />
			<input>
				<port id="0" precision="FP32">
					<dim>-1</dim>
					<dim>32</dim>
					<dim>-1</dim>
					<dim>32</dim>
				</port>
				<port id="1" precision="FP32" />
			</input>
			<output>
				<port id="2" precision="FP32" names="360">
					<dim>-1</dim>
					<dim>32</dim>
					<dim>-1</dim>
					<dim>32</dim>
				</port>
			</output>
		</layer>
		<layer id="83" name="Constant_580" type="Const" version="opset1">
			<data element_type="i64" shape="1" offset="4" size="8" />
			<output>
				<port id="0" precision="I64">
					<dim>1</dim>
				</port>
			</output>
		</layer>
		<layer id="84" name="Constant_624" type="Const" version="opset1">
			<data element_type="i64" shape="1" offset="67909636" size="8" />
			<output>
				<port id="0" precision="I64">
					<dim>1</dim>
				</port>
			</output>
		</layer>
		<layer id="85" name="Constant_626" type="Const" version="opset1">
			<data element_type="i64" shape="1" offset="67909616" size="8" />
			<output>
				<port id="0" precision="I64">
					<dim>1</dim>
				</port>
			</output>
		</layer>
		<layer id="86" name="Constant_578" type="Const" version="opset1">
			<data element_type="i64" shape="1" offset="67909652" size="8" />
			<output>
				<port id="0" precision="I64">
					<dim>1</dim>
				</port>
			</output>
		</layer>
		<layer id="87" name="__module.model.layers.0.self_attn/aten::slice/Slice_1" type="Slice" version="opset8">
			<input>
				<port id="0" precision="FP32">
					<dim>-1</dim>
					<dim>32</dim>
					<dim>-1</dim>
					<dim>64</dim>
				</port>
				<port id="1" precision="I64">
					<dim>1</dim>
				</port>
				<port id="2" precision="I64">
					<dim>1</dim>
				</port>
				<port id="3" precision="I64">
					<dim>1</dim>
				</port>
				<port id="4" precision="I64">
					<dim>1</dim>
				</port>
			</input>
			<output>
				<port id="5" precision="FP32" names="354,x1.1">
					<dim>-1</dim>
					<dim>32</dim>
					<dim>-1</dim>
					<dim>32</dim>
				</port>
			</output>
		</layer>
		<layer id="88" name="__module.model.layers.0.self_attn/aten::cat/Concat" type="Concat" version="opset1">
			<data axis="-1" />
			<input>
				<port id="0" precision="FP32">
					<dim>-1</dim>
					<dim>32</dim>
					<dim>-1</dim>
					<dim>32</dim>
				</port>
				<port id="1" precision="FP32">
					<dim>-1</dim>
					<dim>32</dim>
					<dim>-1</dim>
					<dim>32</dim>
				</port>
			</input>
			<output>
				<port id="2" precision="FP32" names="362">
					<dim>-1</dim>
					<dim>32</dim>
					<dim>-1</dim>
					<dim>64</dim>
				</port>
			</output>
		</layer>
		<layer id="89" name="__module.model.rotary_emb/aten::sin/Sin" type="Sin" version="opset1">
			<input>
				<port id="0" precision="FP32">
					<dim>-1</dim>
					<dim>-1</dim>
					<dim>64</dim>
				</port>
			</input>
			<output>
				<port id="1" precision="FP32" names="302,303,305,308,sin.1,sin.3">
					<dim>-1</dim>
					<dim>-1</dim>
					<dim>64</dim>
				</port>
			</output>
		</layer>
		<layer id="90" name="__module.model.layers.0.self_attn/aten::unsqueeze/Unsqueeze_1" type="Unsqueeze" version="opset1">
			<input>
				<port id="0" precision="FP32">
					<dim>-1</dim>
					<dim>-1</dim>
					<dim>64</dim>
				</port>
				<port id="1" precision="I64" />
			</input>
			<output>
				<port id="2" precision="FP32" names="1123,1278,1433,1588,1743,1898,2053,2208,2363,2518,2673,2828,2983,3138,3293,3448,348,3603,503,658,813,968,sin,sin.11,sin.13,sin.15,sin.17,sin.19,sin.21,sin.23,sin.25,sin.27,sin.29,sin.31,sin.33,sin.35,sin.37,sin.39,sin.41,sin.43,sin.45,sin.5,sin.7,sin.9">
					<dim>-1</dim>
					<dim>1</dim>
					<dim>-1</dim>
					<dim>64</dim>
				</port>
			</output>
		</layer>
		<layer id="91" name="__module.model.layers.0.self_attn/aten::mul/Multiply_1" type="Multiply" version="opset1">
			<data auto_broadcast="numpy" />
			<input>
				<port id="0" precision="FP32">
					<dim>-1</dim>
					<dim>32</dim>
					<dim>-1</dim>
					<dim>64</dim>
				</port>
				<port id="1" precision="FP32">
					<dim>-1</dim>
					<dim>1</dim>
					<dim>-1</dim>
					<dim>64</dim>
				</port>
			</input>
			<output>
				<port id="2" precision="FP32" names="363">
					<dim>-1</dim>
					<dim>32</dim>
					<dim>-1</dim>
					<dim>64</dim>
				</port>
			</output>
		</layer>
		<layer id="92" name="__module.model.layers.0.self_attn/aten::add/Add" type="Add" version="opset1">
			<data auto_broadcast="numpy" />
			<input>
				<port id="0" precision="FP32">
					<dim>-1</dim>
					<dim>32</dim>
					<dim>-1</dim>
					<dim>64</dim>
				</port>
				<port id="1" precision="FP32">
					<dim>-1</dim>
					<dim>32</dim>
					<dim>-1</dim>
					<dim>64</dim>
				</port>
			</input>
			<output>
				<port id="2" precision="FP32" names="364,query.1">
					<dim>-1</dim>
					<dim>32</dim>
					<dim>-1</dim>
					<dim>64</dim>
				</port>
			</output>
		</layer>
		<layer id="93" name="Constant_67514" type="Const" version="opset1">
			<data element_type="f32" shape="" offset="0" size="4" />
			<output>
				<port id="0" precision="FP32" />
			</output>
		</layer>
		<layer id="94" name="Constant_67507" type="Const" version="opset1">
			<data element_type="i64" shape="1" offset="12" size="8" />
			<output>
				<port id="0" precision="I64">
					<dim>1</dim>
				</port>
			</output>
		</layer>
		<layer id="95" name="Constant_67509" type="Const" version="opset1">
			<data element_type="i64" shape="1" offset="4" size="8" />
			<output>
				<port id="0" precision="I64">
					<dim>1</dim>
				</port>
			</output>
		</layer>
		<layer id="96" name="Constant_67511" type="Const" version="opset1">
			<data element_type="i64" shape="1" offset="20" size="8" />
			<output>
				<port id="0" precision="I64">
					<dim>1</dim>
				</port>
			</output>
		</layer>
		<layer id="97" name="Concat_67512" type="Concat" version="opset1">
			<data axis="0" />
			<input>
				<port id="0" precision="I64">
					<dim>1</dim>
				</port>
				<port id="1" precision="I64">
					<dim>1</dim>
				</port>
				<port id="2" precision="I64">
					<dim>1</dim>
				</port>
				<port id="3" precision="I64">
					<dim>1</dim>
				</port>
			</input>
			<output>
				<port id="4" precision="I64">
					<dim>4</dim>
				</port>
			</output>
		</layer>
		<layer id="98" name="Broadcast_67515" type="Broadcast" version="opset3">
			<data mode="numpy" />
			<input>
				<port id="0" precision="FP32" />
				<port id="1" precision="I64">
					<dim>4</dim>
				</port>
			</input>
			<output>
				<port id="2" precision="FP32">
					<dim>-1</dim>
					<dim>4</dim>
					<dim>0</dim>
					<dim>64</dim>
				</port>
			</output>
		</layer>
		<layer id="99" name="ReadValue_67014" type="ReadValue" version="opset6">
			<data variable_id="past_key_values.0.keypresent.0.key" variable_type="f32" variable_shape="?,4,?,64" />
			<input>
				<port id="0" precision="FP32">
					<dim>-1</dim>
					<dim>4</dim>
					<dim>0</dim>
					<dim>64</dim>
				</port>
			</input>
			<output>
				<port id="1" precision="FP32" names="past_key_values.0.key">
					<dim>-1</dim>
					<dim>4</dim>
					<dim>-1</dim>
					<dim>64</dim>
				</port>
			</output>
		</layer>
		<layer id="100" name="Constant_66497" type="Const" version="opset1">
			<data element_type="i64" shape="" offset="4" size="8" />
			<output>
				<port id="0" precision="I64" />
			</output>
		</layer>
		<layer id="101" name="Gather_66498" type="Gather" version="opset8">
			<data batch_dims="0" />
			<input>
				<port id="0" precision="FP32">
					<dim>-1</dim>
					<dim>4</dim>
					<dim>-1</dim>
					<dim>64</dim>
				</port>
				<port id="1" precision="I32">
					<dim>-1</dim>
				</port>
				<port id="2" precision="I64" />
			</input>
			<output>
				<port id="3" precision="FP32">
					<dim>-1</dim>
					<dim>4</dim>
					<dim>-1</dim>
					<dim>64</dim>
				</port>
			</output>
		</layer>
		<layer id="102" name="self.model.layers.0.self_attn.k_proj.weight" type="Const" version="opset1">
			<data element_type="u4" shape="256, 32, 64" offset="67909664" size="262144" />
			<output>
				<port id="0" precision="U4">
					<dim>256</dim>
					<dim>32</dim>
					<dim>64</dim>
				</port>
			</output>
		</layer>
		<layer id="103" name="Convert_620073" type="Convert" version="opset1">
			<data destination_type="f16" />
			<input>
				<port id="0" precision="U4">
					<dim>256</dim>
					<dim>32</dim>
					<dim>64</dim>
				</port>
			</input>
			<output>
				<port id="1" precision="FP16">
					<dim>256</dim>
					<dim>32</dim>
					<dim>64</dim>
				</port>
			</output>
		</layer>
		<layer id="104" name="self.model.layers.0.self_attn.k_proj.weight/zero_point" type="Const" version="opset1">
			<data element_type="u4" shape="256, 32, 1" offset="68171808" size="4096" />
			<output>
				<port id="0" precision="U4">
					<dim>256</dim>
					<dim>32</dim>
					<dim>1</dim>
				</port>
			</output>
		</layer>
		<layer id="105" name="Convert_620076" type="Convert" version="opset1">
			<data destination_type="f16" />
			<input>
				<port id="0" precision="U4">
					<dim>256</dim>
					<dim>32</dim>
					<dim>1</dim>
				</port>
			</input>
			<output>
				<port id="1" precision="FP16">
					<dim>256</dim>
					<dim>32</dim>
					<dim>1</dim>
				</port>
			</output>
		</layer>
		<layer id="106" name="self.model.layers.0.self_attn.k_proj.weight/zero_point/subtract" type="Subtract" version="opset1">
			<data auto_broadcast="numpy" />
			<input>
				<port id="0" precision="FP16">
					<dim>256</dim>
					<dim>32</dim>
					<dim>64</dim>
				</port>
				<port id="1" precision="FP16">
					<dim>256</dim>
					<dim>32</dim>
					<dim>1</dim>
				</port>
			</input>
			<output>
				<port id="2" precision="FP16">
					<dim>256</dim>
					<dim>32</dim>
					<dim>64</dim>
				</port>
			</output>
		</layer>
		<layer id="107" name="self.model.layers.0.self_attn.k_proj.weight/scale" type="Const" version="opset1">
			<data element_type="f16" shape="256, 32, 1" offset="68175904" size="16384" />
			<output>
				<port id="0" precision="FP16">
					<dim>256</dim>
					<dim>32</dim>
					<dim>1</dim>
				</port>
			</output>
		</layer>
		<layer id="108" name="self.model.layers.0.self_attn.k_proj.weight/fq_weights_1" type="Multiply" version="opset1">
			<data auto_broadcast="numpy" />
			<input>
				<port id="0" precision="FP16">
					<dim>256</dim>
					<dim>32</dim>
					<dim>64</dim>
				</port>
				<port id="1" precision="FP16">
					<dim>256</dim>
					<dim>32</dim>
					<dim>1</dim>
				</port>
			</input>
			<output>
				<port id="2" precision="FP16">
					<dim>256</dim>
					<dim>32</dim>
					<dim>64</dim>
				</port>
			</output>
		</layer>
		<layer id="109" name="Constant_620081" type="Const" version="opset1">
			<data element_type="i64" shape="2" offset="68192288" size="16" />
			<output>
				<port id="0" precision="I64">
					<dim>2</dim>
				</port>
			</output>
		</layer>
		<layer id="110" name="Reshape_620082" type="Reshape" version="opset1">
			<data special_zero="false" />
			<input>
				<port id="0" precision="FP16">
					<dim>256</dim>
					<dim>32</dim>
					<dim>64</dim>
				</port>
				<port id="1" precision="I64">
					<dim>2</dim>
				</port>
			</input>
			<output>
				<port id="2" precision="FP16">
					<dim>256</dim>
					<dim>2048</dim>
				</port>
			</output>
		</layer>
		<layer id="111" name="__module.model.layers.0.self_attn.k_proj/ov_ext::linear/Convert" type="Convert" version="opset1">
			<data destination_type="f32" />
			<rt_info>
				<attribute name="decompression" version="0" />
			</rt_info>
			<input>
				<port id="0" precision="FP16">
					<dim>256</dim>
					<dim>2048</dim>
				</port>
			</input>
			<output>
				<port id="1" precision="FP32">
					<dim>256</dim>
					<dim>2048</dim>
				</port>
			</output>
		</layer>
		<layer id="112" name="__module.model.layers.0.self_attn.k_proj/ov_ext::linear/MatMul" type="MatMul" version="opset1">
			<data transpose_a="false" transpose_b="true" />
			<input>
				<port id="0" precision="FP32">
					<dim>-1</dim>
					<dim>-1</dim>
					<dim>2048</dim>
				</port>
				<port id="1" precision="FP32">
					<dim>256</dim>
					<dim>2048</dim>
				</port>
			</input>
			<output>
				<port id="2" precision="FP32" names="338">
					<dim>-1</dim>
					<dim>-1</dim>
					<dim>256</dim>
				</port>
			</output>
		</layer>
		<layer id="113" name="Constant_64981" type="Const" version="opset1">
			<data element_type="i64" shape="4" offset="68192304" size="32" />
			<output>
				<port id="0" precision="I64">
					<dim>4</dim>
				</port>
			</output>
		</layer>
		<layer id="114" name="__module.model.layers.0.self_attn/aten::view/Reshape_1" type="Reshape" version="opset1">
			<data special_zero="true" />
			<input>
				<port id="0" precision="FP32">
					<dim>-1</dim>
					<dim>-1</dim>
					<dim>256</dim>
				</port>
				<port id="1" precision="I64">
					<dim>4</dim>
				</port>
			</input>
			<output>
				<port id="2" precision="FP32" names="340">
					<dim>-1</dim>
					<dim>-1</dim>
					<dim>4</dim>
					<dim>64</dim>
				</port>
			</output>
		</layer>
		<layer id="115" name="__module.model.layers.0.self_attn/aten::transpose/Constant_1" type="Const" version="opset1">
			<data element_type="i32" shape="4" offset="67909472" size="16" />
			<output>
				<port id="0" precision="I32">
					<dim>4</dim>
				</port>
			</output>
		</layer>
		<layer id="116" name="__module.model.layers.0.self_attn/aten::transpose/Transpose_1" type="Transpose" version="opset1">
			<input>
				<port id="0" precision="FP32">
					<dim>-1</dim>
					<dim>-1</dim>
					<dim>4</dim>
					<dim>64</dim>
				</port>
				<port id="1" precision="I32">
					<dim>4</dim>
				</port>
			</input>
			<output>
				<port id="2" precision="FP32" names="341,k.1">
					<dim>-1</dim>
					<dim>4</dim>
					<dim>-1</dim>
					<dim>64</dim>
				</port>
			</output>
		</layer>
		<layer id="117" name="__module.model.layers.0.self_attn/aten::mul/Multiply_2" type="Multiply" version="opset1">
			<data auto_broadcast="numpy" />
			<input>
				<port id="0" precision="FP32">
					<dim>-1</dim>
					<dim>4</dim>
					<dim>-1</dim>
					<dim>64</dim>
				</port>
				<port id="1" precision="FP32">
					<dim>-1</dim>
					<dim>1</dim>
					<dim>-1</dim>
					<dim>64</dim>
				</port>
			</input>
			<output>
				<port id="2" precision="FP32" names="365">
					<dim>-1</dim>
					<dim>4</dim>
					<dim>-1</dim>
					<dim>64</dim>
				</port>
			</output>
		</layer>
		<layer id="118" name="Constant_826" type="Const" version="opset1">
			<data element_type="i64" shape="1" offset="67909636" size="8" />
			<output>
				<port id="0" precision="I64">
					<dim>1</dim>
				</port>
			</output>
		</layer>
		<layer id="119" name="Constant_828" type="Const" version="opset1">
			<data element_type="i64" shape="1" offset="67909644" size="8" />
			<output>
				<port id="0" precision="I64">
					<dim>1</dim>
				</port>
			</output>
		</layer>
		<layer id="120" name="Constant_830" type="Const" version="opset1">
			<data element_type="i64" shape="1" offset="67909616" size="8" />
			<output>
				<port id="0" precision="I64">
					<dim>1</dim>
				</port>
			</output>
		</layer>
		<layer id="121" name="Constant_782" type="Const" version="opset1">
			<data element_type="i64" shape="1" offset="67909652" size="8" />
			<output>
				<port id="0" precision="I64">
					<dim>1</dim>
				</port>
			</output>
		</layer>
		<layer id="122" name="__module.model.layers.0.self_attn/aten::slice/Slice_2" type="Slice" version="opset8">
			<input>
				<port id="0" precision="FP32">
					<dim>-1</dim>
					<dim>4</dim>
					<dim>-1</dim>
					<dim>64</dim>
				</port>
				<port id="1" precision="I64">
					<dim>1</dim>
				</port>
				<port id="2" precision="I64">
					<dim>1</dim>
				</port>
				<port id="3" precision="I64">
					<dim>1</dim>
				</port>
				<port id="4" precision="I64">
					<dim>1</dim>
				</port>
			</input>
			<output>
				<port id="5" precision="FP32" names="375,x2.3">
					<dim>-1</dim>
					<dim>4</dim>
					<dim>-1</dim>
					<dim>32</dim>
				</port>
			</output>
		</layer>
		<layer id="123" name="__module.model.layers.0.self_attn/aten::neg/Constant_1" type="Const" version="opset1">
			<data element_type="i32" shape="" offset="67909660" size="4" />
			<output>
				<port id="0" precision="I32" />
			</output>
		</layer>
		<layer id="124" name="__module.model.layers.0.self_attn/aten::neg/ConvertLike_1" type="Convert" version="opset1">
			<data destination_type="f32" />
			<input>
				<port id="0" precision="I32" />
			</input>
			<output>
				<port id="1" precision="FP32" />
			</output>
		</layer>
		<layer id="125" name="__module.model.layers.0.self_attn/aten::neg/Multiply_1" type="Multiply" version="opset1">
			<data auto_broadcast="numpy" />
			<input>
				<port id="0" precision="FP32">
					<dim>-1</dim>
					<dim>4</dim>
					<dim>-1</dim>
					<dim>32</dim>
				</port>
				<port id="1" precision="FP32" />
			</input>
			<output>
				<port id="2" precision="FP32" names="376">
					<dim>-1</dim>
					<dim>4</dim>
					<dim>-1</dim>
					<dim>32</dim>
				</port>
			</output>
		</layer>
		<layer id="126" name="Constant_723" type="Const" version="opset1">
			<data element_type="i64" shape="1" offset="4" size="8" />
			<output>
				<port id="0" precision="I64">
					<dim>1</dim>
				</port>
			</output>
		</layer>
		<layer id="127" name="Constant_767" type="Const" version="opset1">
			<data element_type="i64" shape="1" offset="67909636" size="8" />
			<output>
				<port id="0" precision="I64">
					<dim>1</dim>
				</port>
			</output>
		</layer>
		<layer id="128" name="Constant_769" type="Const" version="opset1">
			<data element_type="i64" shape="1" offset="67909616" size="8" />
			<output>
				<port id="0" precision="I64">
					<dim>1</dim>
				</port>
			</output>
		</layer>
		<layer id="129" name="Constant_721" type="Const" version="opset1">
			<data element_type="i64" shape="1" offset="67909652" size="8" />
			<output>
				<port id="0" precision="I64">
					<dim>1</dim>
				</port>
			</output>
		</layer>
		<layer id="130" name="__module.model.layers.0.self_attn/aten::slice/Slice_3" type="Slice" version="opset8">
			<input>
				<port id="0" precision="FP32">
					<dim>-1</dim>
					<dim>4</dim>
					<dim>-1</dim>
					<dim>64</dim>
				</port>
				<port id="1" precision="I64">
					<dim>1</dim>
				</port>
				<port id="2" precision="I64">
					<dim>1</dim>
				</port>
				<port id="3" precision="I64">
					<dim>1</dim>
				</port>
				<port id="4" precision="I64">
					<dim>1</dim>
				</port>
			</input>
			<output>
				<port id="5" precision="FP32" names="370,x1.3">
					<dim>-1</dim>
					<dim>4</dim>
					<dim>-1</dim>
					<dim>32</dim>
				</port>
			</output>
		</layer>
		<layer id="131" name="__module.model.layers.0.self_attn/aten::cat/Concat_1" type="Concat" version="opset1">
			<data axis="-1" />
			<input>
				<port id="0" precision="FP32">
					<dim>-1</dim>
					<dim>4</dim>
					<dim>-1</dim>
					<dim>32</dim>
				</port>
				<port id="1" precision="FP32">
					<dim>-1</dim>
					<dim>4</dim>
					<dim>-1</dim>
					<dim>32</dim>
				</port>
			</input>
			<output>
				<port id="2" precision="FP32" names="378">
					<dim>-1</dim>
					<dim>4</dim>
					<dim>-1</dim>
					<dim>64</dim>
				</port>
			</output>
		</layer>
		<layer id="132" name="__module.model.layers.0.self_attn/aten::mul/Multiply_3" type="Multiply" version="opset1">
			<data auto_broadcast="numpy" />
			<input>
				<port id="0" precision="FP32">
					<dim>-1</dim>
					<dim>4</dim>
					<dim>-1</dim>
					<dim>64</dim>
				</port>
				<port id="1" precision="FP32">
					<dim>-1</dim>
					<dim>1</dim>
					<dim>-1</dim>
					<dim>64</dim>
				</port>
			</input>
			<output>
				<port id="2" precision="FP32" names="379">
					<dim>-1</dim>
					<dim>4</dim>
					<dim>-1</dim>
					<dim>64</dim>
				</port>
			</output>
		</layer>
		<layer id="133" name="__module.model.layers.0.self_attn/aten::add/Add_1" type="Add" version="opset1">
			<data auto_broadcast="numpy" />
			<input>
				<port id="0" precision="FP32">
					<dim>-1</dim>
					<dim>4</dim>
					<dim>-1</dim>
					<dim>64</dim>
				</port>
				<port id="1" precision="FP32">
					<dim>-1</dim>
					<dim>4</dim>
					<dim>-1</dim>
					<dim>64</dim>
				</port>
			</input>
			<output>
				<port id="2" precision="FP32" names="380,key_states.1">
					<dim>-1</dim>
					<dim>4</dim>
					<dim>-1</dim>
					<dim>64</dim>
				</port>
			</output>
		</layer>
		<layer id="134" name="__module.model.layers.0.self_attn/aten::cat/Concat_2" type="Concat" version="opset1">
			<data axis="-2" />
			<input>
				<port id="0" precision="FP32">
					<dim>-1</dim>
					<dim>4</dim>
					<dim>-1</dim>
					<dim>64</dim>
				</port>
				<port id="1" precision="FP32">
					<dim>-1</dim>
					<dim>4</dim>
					<dim>-1</dim>
					<dim>64</dim>
				</port>
			</input>
			<output>
				<port id="2" precision="FP32" names="390,391,hidden_states.9">
					<dim>-1</dim>
					<dim>4</dim>
					<dim>-1</dim>
					<dim>64</dim>
				</port>
			</output>
		</layer>
		<layer id="135" name="183" type="Const" version="opset1">
			<data element_type="i64" shape="" offset="68192336" size="8" />
			<output>
				<port id="0" precision="I64" names="183" />
			</output>
		</layer>
		<layer id="136" name="__module.model.layers.0.self_attn/aten::unsqueeze/Unsqueeze_2" type="Unsqueeze" version="opset1">
			<input>
				<port id="0" precision="FP32">
					<dim>-1</dim>
					<dim>4</dim>
					<dim>-1</dim>
					<dim>64</dim>
				</port>
				<port id="1" precision="I64" />
			</input>
			<output>
				<port id="2" precision="FP32" names="392,393,394">
					<dim>-1</dim>
					<dim>4</dim>
					<dim>1</dim>
					<dim>-1</dim>
					<dim>64</dim>
				</port>
			</output>
		</layer>
		<layer id="137" name="__module.model.layers.0.self_attn/aten::size/ShapeOf_2" type="ShapeOf" version="opset3">
			<data output_type="i64" />
			<input>
				<port id="0" precision="FP32">
					<dim>-1</dim>
					<dim>4</dim>
					<dim>-1</dim>
					<dim>64</dim>
				</port>
			</input>
			<output>
				<port id="1" precision="I64">
					<dim>4</dim>
				</port>
			</output>
		</layer>
		<layer id="138" name="Constant_53293" type="Const" version="opset1">
			<data element_type="i64" shape="2" offset="68192344" size="16" />
			<output>
				<port id="0" precision="I64">
					<dim>2</dim>
				</port>
			</output>
		</layer>
		<layer id="139" name="Constant_53294" type="Const" version="opset1">
			<data element_type="i64" shape="" offset="4" size="8" />
			<output>
				<port id="0" precision="I64" />
			</output>
		</layer>
		<layer id="140" name="Gather_53295" type="Gather" version="opset8">
			<data batch_dims="0" />
			<input>
				<port id="0" precision="I64">
					<dim>4</dim>
				</port>
				<port id="1" precision="I64">
					<dim>2</dim>
				</port>
				<port id="2" precision="I64" />
			</input>
			<output>
				<port id="3" precision="I64">
					<dim>2</dim>
				</port>
			</output>
		</layer>
		<layer id="141" name="Constant_51469" type="Const" version="opset1">
			<data element_type="i64" shape="1" offset="68192360" size="8" />
			<output>
				<port id="0" precision="I64">
					<dim>1</dim>
				</port>
			</output>
		</layer>
		<layer id="142" name="ShapeOf_59707" type="ShapeOf" version="opset3">
			<data output_type="i64" />
			<input>
				<port id="0" precision="FP32">
					<dim>-1</dim>
					<dim>4</dim>
					<dim>-1</dim>
					<dim>64</dim>
				</port>
			</input>
			<output>
				<port id="1" precision="I64">
					<dim>4</dim>
				</port>
			</output>
		</layer>
		<layer id="143" name="Constant_59708" type="Const" version="opset1">
			<data element_type="i64" shape="" offset="68192336" size="8" />
			<output>
				<port id="0" precision="I64" />
			</output>
		</layer>
		<layer id="144" name="Constant_59709" type="Const" version="opset1">
			<data element_type="i64" shape="" offset="4" size="8" />
			<output>
				<port id="0" precision="I64" />
			</output>
		</layer>
		<layer id="145" name="Gather_59710" type="Gather" version="opset8">
			<data batch_dims="0" />
			<input>
				<port id="0" precision="I64">
					<dim>4</dim>
				</port>
				<port id="1" precision="I64" />
				<port id="2" precision="I64" />
			</input>
			<output>
				<port id="3" precision="I64" names="233,243" />
			</output>
		</layer>
		<layer id="146" name="Constant_59728" type="Const" version="opset1">
			<data element_type="i64" shape="1" offset="67909616" size="8" />
			<output>
				<port id="0" precision="I64">
					<dim>1</dim>
				</port>
			</output>
		</layer>
		<layer id="147" name="Reshape_59729" type="Reshape" version="opset1">
			<data special_zero="false" />
			<input>
				<port id="0" precision="I64" />
				<port id="1" precision="I64">
					<dim>1</dim>
				</port>
			</input>
			<output>
				<port id="2" precision="I64">
					<dim>1</dim>
				</port>
			</output>
		</layer>
		<layer id="148" name="Constant_59716" type="Const" version="opset1">
			<data element_type="i64" shape="" offset="67909616" size="8" />
			<output>
				<port id="0" precision="I64" />
			</output>
		</layer>
		<layer id="149" name="Constant_59717" type="Const" version="opset1">
			<data element_type="i64" shape="" offset="4" size="8" />
			<output>
				<port id="0" precision="I64" />
			</output>
		</layer>
		<layer id="150" name="Gather_59718" type="Gather" version="opset8">
			<data batch_dims="0" />
			<input>
				<port id="0" precision="I64">
					<dim>3</dim>
				</port>
				<port id="1" precision="I64" />
				<port id="2" precision="I64" />
			</input>
			<output>
				<port id="3" precision="I64" names="235" />
			</output>
		</layer>
		<layer id="151" name="Constant_59730" type="Const" version="opset1">
			<data element_type="i64" shape="1" offset="67909616" size="8" />
			<output>
				<port id="0" precision="I64">
					<dim>1</dim>
				</port>
			</output>
		</layer>
		<layer id="152" name="Reshape_59731" type="Reshape" version="opset1">
			<data special_zero="false" />
			<input>
				<port id="0" precision="I64" />
				<port id="1" precision="I64">
					<dim>1</dim>
				</port>
			</input>
			<output>
				<port id="2" precision="I64">
					<dim>1</dim>
				</port>
			</output>
		</layer>
		<layer id="153" name="Add_59732" type="Add" version="opset1">
			<data auto_broadcast="numpy" />
			<input>
				<port id="0" precision="I64">
					<dim>1</dim>
				</port>
				<port id="1" precision="I64">
					<dim>1</dim>
				</port>
			</input>
			<output>
				<port id="2" precision="I64" names="1008,1037,1163,1192,1318,1347,1473,1502,1628,1657,1783,1812,1938,1967,2093,2122,2248,2277,2403,2432,2558,2587,2713,2742,2868,2897,3023,3052,3178,3207,3333,3362,3488,3517,3643,3672,388,417,543,572,698,727,853,882">
					<dim>1</dim>
				</port>
			</output>
		</layer>
		<layer id="154" name="Constant_51472" type="Const" version="opset1">
			<data element_type="i64" shape="1" offset="20" size="8" />
			<output>
				<port id="0" precision="I64">
					<dim>1</dim>
				</port>
			</output>
		</layer>
		<layer id="155" name="__module.model.layers.0.self_attn/prim::ListConstruct_2" type="Concat" version="opset1">
			<data axis="0" />
			<input>
				<port id="0" precision="I64">
					<dim>2</dim>
				</port>
				<port id="1" precision="I64">
					<dim>1</dim>
				</port>
				<port id="2" precision="I64">
					<dim>1</dim>
				</port>
				<port id="3" precision="I64">
					<dim>1</dim>
				</port>
			</input>
			<output>
				<port id="4" precision="I64">
					<dim>5</dim>
				</port>
			</output>
		</layer>
		<layer id="156" name="__module.model.layers.0.self_attn/aten::expand/Broadcast" type="Broadcast" version="opset3">
			<data mode="bidirectional" />
			<input>
				<port id="0" precision="FP32">
					<dim>-1</dim>
					<dim>4</dim>
					<dim>1</dim>
					<dim>-1</dim>
					<dim>64</dim>
				</port>
				<port id="1" precision="I64">
					<dim>5</dim>
				</port>
			</input>
			<output>
				<port id="2" precision="FP32" names="396,hidden_states.11">
					<dim>-1</dim>
					<dim>4</dim>
					<dim>8</dim>
					<dim>-1</dim>
					<dim>64</dim>
				</port>
			</output>
		</layer>
		<layer id="157" name="Constant_64982" type="Const" version="opset1">
			<data element_type="i64" shape="4" offset="68192368" size="32" />
			<output>
				<port id="0" precision="I64">
					<dim>4</dim>
				</port>
			</output>
		</layer>
		<layer id="158" name="__module.model.layers.0.self_attn/aten::reshape/Reshape" type="Reshape" version="opset1">
			<data special_zero="true" />
			<input>
				<port id="0" precision="FP32">
					<dim>-1</dim>
					<dim>4</dim>
					<dim>8</dim>
					<dim>-1</dim>
					<dim>64</dim>
				</port>
				<port id="1" precision="I64">
					<dim>4</dim>
				</port>
			</input>
			<output>
				<port id="2" precision="FP32" names="400,key.1">
					<dim>-1</dim>
					<dim>32</dim>
					<dim>-1</dim>
					<dim>64</dim>
				</port>
			</output>
		</layer>
		<layer id="159" name="Constant_67526" type="Const" version="opset1">
			<data element_type="f32" shape="" offset="0" size="4" />
			<output>
				<port id="0" precision="FP32" />
			</output>
		</layer>
		<layer id="160" name="Constant_67519" type="Const" version="opset1">
			<data element_type="i64" shape="1" offset="12" size="8" />
			<output>
				<port id="0" precision="I64">
					<dim>1</dim>
				</port>
			</output>
		</layer>
		<layer id="161" name="Constant_67521" type="Const" version="opset1">
			<data element_type="i64" shape="1" offset="4" size="8" />
			<output>
				<port id="0" precision="I64">
					<dim>1</dim>
				</port>
			</output>
		</layer>
		<layer id="162" name="Constant_67523" type="Const" version="opset1">
			<data element_type="i64" shape="1" offset="20" size="8" />
			<output>
				<port id="0" precision="I64">
					<dim>1</dim>
				</port>
			</output>
		</layer>
		<layer id="163" name="Concat_67524" type="Concat" version="opset1">
			<data axis="0" />
			<input>
				<port id="0" precision="I64">
					<dim>1</dim>
				</port>
				<port id="1" precision="I64">
					<dim>1</dim>
				</port>
				<port id="2" precision="I64">
					<dim>1</dim>
				</port>
				<port id="3" precision="I64">
					<dim>1</dim>
				</port>
			</input>
			<output>
				<port id="4" precision="I64">
					<dim>4</dim>
				</port>
			</output>
		</layer>
		<layer id="164" name="Broadcast_67527" type="Broadcast" version="opset3">
			<data mode="numpy" />
			<input>
				<port id="0" precision="FP32" />
				<port id="1" precision="I64">
					<dim>4</dim>
				</port>
			</input>
			<output>
				<port id="2" precision="FP32">
					<dim>-1</dim>
					<dim>4</dim>
					<dim>0</dim>
					<dim>64</dim>
				</port>
			</output>
		</layer>
		<layer id="165" name="ReadValue_67016" type="ReadValue" version="opset6">
			<data variable_id="past_key_values.0.valuepresent.0.value" variable_type="f32" variable_shape="?,4,?,64" />
			<input>
				<port id="0" precision="FP32">
					<dim>-1</dim>
					<dim>4</dim>
					<dim>0</dim>
					<dim>64</dim>
				</port>
			</input>
			<output>
				<port id="1" precision="FP32" names="past_key_values.0.value">
					<dim>-1</dim>
					<dim>4</dim>
					<dim>-1</dim>
					<dim>64</dim>
				</port>
			</output>
		</layer>
		<layer id="166" name="Constant_66500" type="Const" version="opset1">
			<data element_type="i64" shape="" offset="4" size="8" />
			<output>
				<port id="0" precision="I64" />
			</output>
		</layer>
		<layer id="167" name="Gather_66501" type="Gather" version="opset8">
			<data batch_dims="0" />
			<input>
				<port id="0" precision="FP32">
					<dim>-1</dim>
					<dim>4</dim>
					<dim>-1</dim>
					<dim>64</dim>
				</port>
				<port id="1" precision="I32">
					<dim>-1</dim>
				</port>
				<port id="2" precision="I64" />
			</input>
			<output>
				<port id="3" precision="FP32">
					<dim>-1</dim>
					<dim>4</dim>
					<dim>-1</dim>
					<dim>64</dim>
				</port>
			</output>
		</layer>
		<layer id="168" name="self.model.layers.0.self_attn.v_proj.weight" type="Const" version="opset1">
			<data element_type="u4" shape="256, 32, 64" offset="68192400" size="262144" />
			<output>
				<port id="0" precision="U4">
					<dim>256</dim>
					<dim>32</dim>
					<dim>64</dim>
				</port>
			</output>
		</layer>
		<layer id="169" name="Convert_624856" type="Convert" version="opset1">
			<data destination_type="f16" />
			<input>
				<port id="0" precision="U4">
					<dim>256</dim>
					<dim>32</dim>
					<dim>64</dim>
				</port>
			</input>
			<output>
				<port id="1" precision="FP16">
					<dim>256</dim>
					<dim>32</dim>
					<dim>64</dim>
				</port>
			</output>
		</layer>
		<layer id="170" name="self.model.layers.0.self_attn.v_proj.weight/zero_point" type="Const" version="opset1">
			<data element_type="u4" shape="256, 32, 1" offset="68454544" size="4096" />
			<output>
				<port id="0" precision="U4">
					<dim>256</dim>
					<dim>32</dim>
					<dim>1</dim>
				</port>
			</output>
		</layer>
		<layer id="171" name="Convert_624859" type="Convert" version="opset1">
			<data destination_type="f16" />
			<input>
				<port id="0" precision="U4">
					<dim>256</dim>
					<dim>32</dim>
					<dim>1</dim>
				</port>
			</input>
			<output>
				<port id="1" precision="FP16">
					<dim>256</dim>
					<dim>32</dim>
					<dim>1</dim>
				</port>
			</output>
		</layer>
		<layer id="172" name="self.model.layers.0.self_attn.v_proj.weight/zero_point/subtract" type="Subtract" version="opset1">
			<data auto_broadcast="numpy" />
			<input>
				<port id="0" precision="FP16">
					<dim>256</dim>
					<dim>32</dim>
					<dim>64</dim>
				</port>
				<port id="1" precision="FP16">
					<dim>256</dim>
					<dim>32</dim>
					<dim>1</dim>
				</port>
			</input>
			<output>
				<port id="2" precision="FP16">
					<dim>256</dim>
					<dim>32</dim>
					<dim>64</dim>
				</port>
			</output>
		</layer>
		<layer id="173" name="self.model.layers.0.self_attn.v_proj.weight/scale" type="Const" version="opset1">
			<data element_type="f16" shape="256, 32, 1" offset="68458640" size="16384" />
			<output>
				<port id="0" precision="FP16">
					<dim>256</dim>
					<dim>32</dim>
					<dim>1</dim>
				</port>
			</output>
		</layer>
		<layer id="174" name="self.model.layers.0.self_attn.v_proj.weight/fq_weights_1" type="Multiply" version="opset1">
			<data auto_broadcast="numpy" />
			<input>
				<port id="0" precision="FP16">
					<dim>256</dim>
					<dim>32</dim>
					<dim>64</dim>
				</port>
				<port id="1" precision="FP16">
					<dim>256</dim>
					<dim>32</dim>
					<dim>1</dim>
				</port>
			</input>
			<output>
				<port id="2" precision="FP16">
					<dim>256</dim>
					<dim>32</dim>
					<dim>64</dim>
				</port>
			</output>
		</layer>
		<layer id="175" name="Constant_624864" type="Const" version="opset1">
			<data element_type="i64" shape="2" offset="68192288" size="16" />
			<output>
				<port id="0" precision="I64">
					<dim>2</dim>
				</port>
			</output>
		</layer>
		<layer id="176" name="Reshape_624865" type="Reshape" version="opset1">
			<data special_zero="false" />
			<input>
				<port id="0" precision="FP16">
					<dim>256</dim>
					<dim>32</dim>
					<dim>64</dim>
				</port>
				<port id="1" precision="I64">
					<dim>2</dim>
				</port>
			</input>
			<output>
				<port id="2" precision="FP16">
					<dim>256</dim>
					<dim>2048</dim>
				</port>
			</output>
		</layer>
		<layer id="177" name="__module.model.layers.0.self_attn.v_proj/ov_ext::linear/Convert" type="Convert" version="opset1">
			<data destination_type="f32" />
			<rt_info>
				<attribute name="decompression" version="0" />
			</rt_info>
			<input>
				<port id="0" precision="FP16">
					<dim>256</dim>
					<dim>2048</dim>
				</port>
			</input>
			<output>
				<port id="1" precision="FP32">
					<dim>256</dim>
					<dim>2048</dim>
				</port>
			</output>
		</layer>
		<layer id="178" name="__module.model.layers.0.self_attn.v_proj/ov_ext::linear/MatMul" type="MatMul" version="opset1">
			<data transpose_a="false" transpose_b="true" />
			<input>
				<port id="0" precision="FP32">
					<dim>-1</dim>
					<dim>-1</dim>
					<dim>2048</dim>
				</port>
				<port id="1" precision="FP32">
					<dim>256</dim>
					<dim>2048</dim>
				</port>
			</input>
			<output>
				<port id="2" precision="FP32" names="343">
					<dim>-1</dim>
					<dim>-1</dim>
					<dim>256</dim>
				</port>
			</output>
		</layer>
		<layer id="179" name="Constant_64983" type="Const" version="opset1">
			<data element_type="i64" shape="4" offset="68192304" size="32" />
			<output>
				<port id="0" precision="I64">
					<dim>4</dim>
				</port>
			</output>
		</layer>
		<layer id="180" name="__module.model.layers.0.self_attn/aten::view/Reshape_2" type="Reshape" version="opset1">
			<data special_zero="true" />
			<input>
				<port id="0" precision="FP32">
					<dim>-1</dim>
					<dim>-1</dim>
					<dim>256</dim>
				</port>
				<port id="1" precision="I64">
					<dim>4</dim>
				</port>
			</input>
			<output>
				<port id="2" precision="FP32" names="345">
					<dim>-1</dim>
					<dim>-1</dim>
					<dim>4</dim>
					<dim>64</dim>
				</port>
			</output>
		</layer>
		<layer id="181" name="__module.model.layers.0.self_attn/aten::transpose/Constant_2" type="Const" version="opset1">
			<data element_type="i32" shape="4" offset="67909472" size="16" />
			<output>
				<port id="0" precision="I32">
					<dim>4</dim>
				</port>
			</output>
		</layer>
		<layer id="182" name="__module.model.layers.0.self_attn/aten::transpose/Transpose_2" type="Transpose" version="opset1">
			<input>
				<port id="0" precision="FP32">
					<dim>-1</dim>
					<dim>-1</dim>
					<dim>4</dim>
					<dim>64</dim>
				</port>
				<port id="1" precision="I32">
					<dim>4</dim>
				</port>
			</input>
			<output>
				<port id="2" precision="FP32" names="346,value_states.1">
					<dim>-1</dim>
					<dim>4</dim>
					<dim>-1</dim>
					<dim>64</dim>
				</port>
			</output>
		</layer>
		<layer id="183" name="__module.model.layers.0.self_attn/aten::cat/Concat_3" type="Concat" version="opset1">
			<data axis="-2" />
			<input>
				<port id="0" precision="FP32">
					<dim>-1</dim>
					<dim>4</dim>
					<dim>-1</dim>
					<dim>64</dim>
				</port>
				<port id="1" precision="FP32">
					<dim>-1</dim>
					<dim>4</dim>
					<dim>-1</dim>
					<dim>64</dim>
				</port>
			</input>
			<output>
				<port id="2" precision="FP32" names="406,407,hidden_states.13">
					<dim>-1</dim>
					<dim>4</dim>
					<dim>-1</dim>
					<dim>64</dim>
				</port>
			</output>
		</layer>
		<layer id="184" name="__module.model.layers.0.self_attn/aten::unsqueeze/Unsqueeze_3" type="Unsqueeze" version="opset1">
			<input>
				<port id="0" precision="FP32">
					<dim>-1</dim>
					<dim>4</dim>
					<dim>-1</dim>
					<dim>64</dim>
				</port>
				<port id="1" precision="I64" />
			</input>
			<output>
				<port id="2" precision="FP32" names="408,409,410">
					<dim>-1</dim>
					<dim>4</dim>
					<dim>1</dim>
					<dim>-1</dim>
					<dim>64</dim>
				</port>
			</output>
		</layer>
		<layer id="185" name="__module.model.layers.0.self_attn/aten::expand/Broadcast_1" type="Broadcast" version="opset3">
			<data mode="bidirectional" />
			<input>
				<port id="0" precision="FP32">
					<dim>-1</dim>
					<dim>4</dim>
					<dim>1</dim>
					<dim>-1</dim>
					<dim>64</dim>
				</port>
				<port id="1" precision="I64">
					<dim>5</dim>
				</port>
			</input>
			<output>
				<port id="2" precision="FP32" names="412,hidden_states.15">
					<dim>-1</dim>
					<dim>4</dim>
					<dim>8</dim>
					<dim>-1</dim>
					<dim>64</dim>
				</port>
			</output>
		</layer>
		<layer id="186" name="Constant_64984" type="Const" version="opset1">
			<data element_type="i64" shape="4" offset="68192368" size="32" />
			<output>
				<port id="0" precision="I64">
					<dim>4</dim>
				</port>
			</output>
		</layer>
		<layer id="187" name="__module.model.layers.0.self_attn/aten::reshape/Reshape_1" type="Reshape" version="opset1">
			<data special_zero="true" />
			<input>
				<port id="0" precision="FP32">
					<dim>-1</dim>
					<dim>4</dim>
					<dim>8</dim>
					<dim>-1</dim>
					<dim>64</dim>
				</port>
				<port id="1" precision="I64">
					<dim>4</dim>
				</port>
			</input>
			<output>
				<port id="2" precision="FP32" names="416,value.1">
					<dim>-1</dim>
					<dim>32</dim>
					<dim>-1</dim>
					<dim>64</dim>
				</port>
			</output>
		</layer>
		<layer id="188" name="__module.model/aten::new_ones/Broadcast" type="Const" version="opset1">
			<data element_type="boolean" shape="" offset="68475024" size="1" />
			<output>
				<port id="0" precision="BOOL" names="266,result.1" />
			</output>
		</layer>
		<layer id="189" name="__module.model/aten::arange/Constant" type="Const" version="opset1">
			<data element_type="i32" shape="" offset="0" size="4" />
			<output>
				<port id="0" precision="I32" />
			</output>
		</layer>
		<layer id="190" name="__module.model/aten::size/Constant_3" type="Const" version="opset1">
			<data element_type="i32" shape="" offset="0" size="4" />
			<output>
				<port id="0" precision="I32" />
			</output>
		</layer>
		<layer id="191" name="__module.model/aten::size/Gather_3" type="Squeeze" version="opset1">
			<input>
				<port id="0" precision="I64">
					<dim>1</dim>
				</port>
				<port id="1" precision="I32" />
			</input>
			<output>
				<port id="2" precision="I64" names="241,249" />
			</output>
		</layer>
		<layer id="192" name="__module.model/aten::add/Add_1" type="Add" version="opset1">
			<data auto_broadcast="numpy" />
			<input>
				<port id="0" precision="I64" />
				<port id="1" precision="I64" />
			</input>
			<output>
				<port id="2" precision="I64" names="245,246,kv_length" />
			</output>
		</layer>
		<layer id="193" name="__module.model/aten::arange/Constant_2" type="Const" version="opset1">
			<data element_type="i32" shape="" offset="68475025" size="4" />
			<output>
				<port id="0" precision="I32" />
			</output>
		</layer>
		<layer id="194" name="__module.model/aten::arange/Range_1" type="Range" version="opset4">
			<data output_type="i64" />
			<input>
				<port id="0" precision="I32" />
				<port id="1" precision="I64" />
				<port id="2" precision="I32" />
			</input>
			<output>
				<port id="3" precision="I64" names="259">
					<dim>-1</dim>
				</port>
			</output>
		</layer>
		<layer id="195" name="177" type="Const" version="opset1">
			<data element_type="i64" shape="" offset="4" size="8" />
			<output>
				<port id="0" precision="I64" names="177" />
			</output>
		</layer>
		<layer id="196" name="__module.model/aten::unsqueeze/Unsqueeze" type="Unsqueeze" version="opset1">
			<input>
				<port id="0" precision="I64">
					<dim>-1</dim>
				</port>
				<port id="1" precision="I64" />
			</input>
			<output>
				<port id="2" precision="I64" names="260">
					<dim>1</dim>
					<dim>-1</dim>
				</port>
			</output>
		</layer>
		<layer id="197" name="__module.model/aten::unsqueeze/Unsqueeze_1" type="Unsqueeze" version="opset1">
			<input>
				<port id="0" precision="I64">
					<dim>1</dim>
					<dim>-1</dim>
				</port>
				<port id="1" precision="I64" />
			</input>
			<output>
				<port id="2" precision="I64" names="261">
					<dim>1</dim>
					<dim>1</dim>
					<dim>-1</dim>
				</port>
			</output>
		</layer>
		<layer id="198" name="__module.model/aten::unsqueeze/Unsqueeze_2" type="Unsqueeze" version="opset1">
			<input>
				<port id="0" precision="I64">
					<dim>1</dim>
					<dim>1</dim>
					<dim>-1</dim>
				</port>
				<port id="1" precision="I64" />
			</input>
			<output>
				<port id="2" precision="I64" names="262,263,264,kv_idx">
					<dim>1</dim>
					<dim>1</dim>
					<dim>1</dim>
					<dim>-1</dim>
				</port>
			</output>
		</layer>
		<layer id="199" name="__module.model/aten::add/Add" type="Add" version="opset1">
			<data auto_broadcast="numpy" />
			<input>
				<port id="0" precision="I64" />
				<port id="1" precision="I64" />
			</input>
			<output>
				<port id="2" precision="I64" names="237" />
			</output>
		</layer>
		<layer id="200" name="__module.model/aten::arange/Constant_1" type="Const" version="opset1">
			<data element_type="i32" shape="" offset="68475025" size="4" />
			<output>
				<port id="0" precision="I32" />
			</output>
		</layer>
		<layer id="201" name="__module.model/aten::arange/Range" type="Range" version="opset4">
			<data output_type="i64" />
			<input>
				<port id="0" precision="I64" />
				<port id="1" precision="I64" />
				<port id="2" precision="I32" />
			</input>
			<output>
				<port id="3" precision="I64" names="239,cache_position">
					<dim>-1</dim>
				</port>
			</output>
		</layer>
		<layer id="202" name="__module.model/aten::unsqueeze/Unsqueeze_3" type="Unsqueeze" version="opset1">
			<input>
				<port id="0" precision="I64">
					<dim>-1</dim>
				</port>
				<port id="1" precision="I64" />
			</input>
			<output>
				<port id="2" precision="I64" names="250">
					<dim>1</dim>
					<dim>-1</dim>
				</port>
			</output>
		</layer>
		<layer id="203" name="__module.model/aten::unsqueeze/Unsqueeze_4" type="Unsqueeze" version="opset1">
			<input>
				<port id="0" precision="I64">
					<dim>1</dim>
					<dim>-1</dim>
				</port>
				<port id="1" precision="I64" />
			</input>
			<output>
				<port id="2" precision="I64" names="251,252">
					<dim>1</dim>
					<dim>1</dim>
					<dim>-1</dim>
				</port>
			</output>
		</layer>
		<layer id="204" name="175" type="Const" version="opset1">
			<data element_type="i64" shape="" offset="67909652" size="8" />
			<output>
				<port id="0" precision="I64" names="175" />
			</output>
		</layer>
		<layer id="205" name="__module.model/aten::unsqueeze/Unsqueeze_5" type="Unsqueeze" version="opset1">
			<input>
				<port id="0" precision="I64">
					<dim>1</dim>
					<dim>1</dim>
					<dim>-1</dim>
				</port>
				<port id="1" precision="I64" />
			</input>
			<output>
				<port id="2" precision="I64" names="253,q_idx">
					<dim>1</dim>
					<dim>1</dim>
					<dim>-1</dim>
					<dim>1</dim>
				</port>
			</output>
		</layer>
		<layer id="206" name="__module.model/aten::le/LessEqual" type="LessEqual" version="opset1">
			<data auto_broadcast="numpy" />
			<input>
				<port id="0" precision="I64">
					<dim>1</dim>
					<dim>1</dim>
					<dim>1</dim>
					<dim>-1</dim>
				</port>
				<port id="1" precision="I64">
					<dim>1</dim>
					<dim>1</dim>
					<dim>-1</dim>
					<dim>1</dim>
				</port>
			</input>
			<output>
				<port id="2" precision="BOOL" names="267,268">
					<dim>1</dim>
					<dim>1</dim>
					<dim>-1</dim>
					<dim>-1</dim>
				</port>
			</output>
		</layer>
		<layer id="207" name="__module.model/aten::__and__/BitwiseAnd" type="BitwiseAnd" version="opset13">
			<data auto_broadcast="numpy" />
			<input>
				<port id="0" precision="BOOL" />
				<port id="1" precision="BOOL">
					<dim>1</dim>
					<dim>1</dim>
					<dim>-1</dim>
					<dim>-1</dim>
				</port>
			</input>
			<output>
				<port id="2" precision="BOOL" names="269,result">
					<dim>1</dim>
					<dim>1</dim>
					<dim>-1</dim>
					<dim>-1</dim>
				</port>
			</output>
		</layer>
		<layer id="208" name="__module.model/aten::to/Convert_1" type="Convert" version="opset1">
			<data destination_type="boolean" />
			<input>
				<port id="0" precision="I64">
					<dim>-1</dim>
					<dim>-1</dim>
				</port>
			</input>
			<output>
				<port id="1" precision="BOOL" names="240,attention_mask.3">
					<dim>-1</dim>
					<dim>-1</dim>
				</port>
			</output>
		</layer>
		<layer id="209" name="__module.model/aten::index/ShapeOf_1" type="ShapeOf" version="opset3">
			<data output_type="i32" />
			<input>
				<port id="0" precision="BOOL">
					<dim>-1</dim>
					<dim>-1</dim>
				</port>
			</input>
			<output>
				<port id="1" precision="I32">
					<dim>2</dim>
				</port>
			</output>
		</layer>
		<layer id="210" name="Constant_24915" type="Const" version="opset1">
			<data element_type="i32" shape="" offset="0" size="4" />
			<output>
				<port id="0" precision="I32" />
			</output>
		</layer>
		<layer id="211" name="__module.model/aten::index/ReduceProd" type="ReduceProd" version="opset1">
			<data keep_dims="true" />
			<input>
				<port id="0" precision="I32">
					<dim>2</dim>
				</port>
				<port id="1" precision="I32" />
			</input>
			<output>
				<port id="2" precision="I32">
					<dim>1</dim>
				</port>
			</output>
		</layer>
		<layer id="212" name="Constant_24917" type="Const" version="opset1">
			<data element_type="i32" shape="1" offset="67909660" size="4" />
			<output>
				<port id="0" precision="I32">
					<dim>1</dim>
				</port>
			</output>
		</layer>
		<layer id="213" name="__module.model/aten::index/Concat" type="Concat" version="opset1">
			<data axis="0" />
			<input>
				<port id="0" precision="I32">
					<dim>1</dim>
				</port>
				<port id="1" precision="I32">
					<dim>1</dim>
				</port>
			</input>
			<output>
				<port id="2" precision="I32">
					<dim>2</dim>
				</port>
			</output>
		</layer>
		<layer id="214" name="__module.model/aten::index/Reshape" type="Reshape" version="opset1">
			<data special_zero="true" />
			<input>
				<port id="0" precision="BOOL">
					<dim>-1</dim>
					<dim>-1</dim>
				</port>
				<port id="1" precision="I32">
					<dim>2</dim>
				</port>
			</input>
			<output>
				<port id="2" precision="BOOL">
					<dim>-1</dim>
					<dim>-1</dim>
				</port>
			</output>
		</layer>
		<layer id="215" name="__module.model/aten::index/Convert" type="Convert" version="opset1">
			<data destination_type="i32" />
			<input>
				<port id="0" precision="I64">
					<dim>1</dim>
					<dim>1</dim>
					<dim>1</dim>
					<dim>-1</dim>
				</port>
			</input>
			<output>
				<port id="1" precision="I32">
					<dim>1</dim>
					<dim>1</dim>
					<dim>1</dim>
					<dim>-1</dim>
				</port>
			</output>
		</layer>
		<layer id="216" name="__module.model/aten::arange/Constant_3" type="Const" version="opset1">
			<data element_type="i32" shape="" offset="0" size="4" />
			<output>
				<port id="0" precision="I32" />
			</output>
		</layer>
		<layer id="217" name="Squeeze_59721" type="Squeeze" version="opset1">
			<input>
				<port id="0" precision="I64">
					<dim>1</dim>
				</port>
			</input>
			<output>
				<port id="1" precision="I64" names="248" />
			</output>
		</layer>
		<layer id="218" name="__module.model/aten::arange/Constant_4" type="Const" version="opset1">
			<data element_type="i32" shape="" offset="68475025" size="4" />
			<output>
				<port id="0" precision="I32" />
			</output>
		</layer>
		<layer id="219" name="__module.model/aten::arange/Range_2" type="Range" version="opset4">
			<data output_type="i64" />
			<input>
				<port id="0" precision="I32" />
				<port id="1" precision="I64" />
				<port id="2" precision="I32" />
			</input>
			<output>
				<port id="3" precision="I64" names="254,255">
					<dim>-1</dim>
				</port>
			</output>
		</layer>
		<layer id="220" name="__module.model/aten::unsqueeze/Unsqueeze_6" type="Unsqueeze" version="opset1">
			<input>
				<port id="0" precision="I64">
					<dim>-1</dim>
				</port>
				<port id="1" precision="I64" />
			</input>
			<output>
				<port id="2" precision="I64" names="256">
					<dim>-1</dim>
					<dim>1</dim>
				</port>
			</output>
		</layer>
		<layer id="221" name="__module.model/aten::unsqueeze/Unsqueeze_7" type="Unsqueeze" version="opset1">
			<input>
				<port id="0" precision="I64">
					<dim>-1</dim>
					<dim>1</dim>
				</port>
				<port id="1" precision="I64" />
			</input>
			<output>
				<port id="2" precision="I64" names="257">
					<dim>-1</dim>
					<dim>1</dim>
					<dim>1</dim>
				</port>
			</output>
		</layer>
		<layer id="222" name="__module.model/aten::unsqueeze/Unsqueeze_8" type="Unsqueeze" version="opset1">
			<input>
				<port id="0" precision="I64">
					<dim>-1</dim>
					<dim>1</dim>
					<dim>1</dim>
				</port>
				<port id="1" precision="I64" />
			</input>
			<output>
				<port id="2" precision="I64" names="258,batch_idx">
					<dim>-1</dim>
					<dim>1</dim>
					<dim>1</dim>
					<dim>1</dim>
				</port>
			</output>
		</layer>
		<layer id="223" name="__module.model/aten::index/Convert_3" type="Convert" version="opset1">
			<data destination_type="i32" />
			<input>
				<port id="0" precision="I64">
					<dim>-1</dim>
					<dim>1</dim>
					<dim>1</dim>
					<dim>1</dim>
				</port>
			</input>
			<output>
				<port id="1" precision="I32">
					<dim>-1</dim>
					<dim>1</dim>
					<dim>1</dim>
					<dim>1</dim>
				</port>
			</output>
		</layer>
		<layer id="224" name="__module.model/aten::index/Constant" type="Const" version="opset1">
			<data element_type="i32" shape="" offset="0" size="4" />
			<output>
				<port id="0" precision="I32" />
			</output>
		</layer>
		<layer id="225" name="__module.model/aten::index/Split" type="Split" version="opset1">
			<data num_splits="2" />
			<input>
				<port id="0" precision="I32">
					<dim>2</dim>
				</port>
				<port id="1" precision="I32" />
			</input>
			<output>
				<port id="2" precision="I32">
					<dim>1</dim>
				</port>
				<port id="3" precision="I32">
					<dim>1</dim>
				</port>
			</output>
		</layer>
		<layer id="226" name="__module.model/aten::index/Multiply" type="Multiply" version="opset1">
			<data auto_broadcast="numpy" />
			<input>
				<port id="0" precision="I32">
					<dim>-1</dim>
					<dim>1</dim>
					<dim>1</dim>
					<dim>1</dim>
				</port>
				<port id="1" precision="I32">
					<dim>1</dim>
				</port>
			</input>
			<output>
				<port id="2" precision="I32">
					<dim>-1</dim>
					<dim>1</dim>
					<dim>1</dim>
					<dim>1</dim>
				</port>
			</output>
		</layer>
		<layer id="227" name="__module.model/aten::index/Add" type="Add" version="opset1">
			<data auto_broadcast="numpy" />
			<input>
				<port id="0" precision="I32">
					<dim>1</dim>
					<dim>1</dim>
					<dim>1</dim>
					<dim>-1</dim>
				</port>
				<port id="1" precision="I32">
					<dim>-1</dim>
					<dim>1</dim>
					<dim>1</dim>
					<dim>1</dim>
				</port>
			</input>
			<output>
				<port id="2" precision="I32">
					<dim>-1</dim>
					<dim>1</dim>
					<dim>1</dim>
					<dim>-1</dim>
				</port>
			</output>
		</layer>
		<layer id="228" name="__module.model/aten::index/Gather" type="Gather" version="opset8">
			<data batch_dims="0" />
			<input>
				<port id="0" precision="BOOL">
					<dim>-1</dim>
					<dim>-1</dim>
				</port>
				<port id="1" precision="I32">
					<dim>-1</dim>
					<dim>1</dim>
					<dim>1</dim>
					<dim>-1</dim>
				</port>
				<port id="2" precision="I32" />
			</input>
			<output>
				<port id="3" precision="BOOL">
					<dim>-1</dim>
					<dim>1</dim>
					<dim>1</dim>
					<dim>-1</dim>
					<dim>-1</dim>
				</port>
			</output>
		</layer>
		<layer id="229" name="Constant_40601" type="Const" version="opset1">
			<data element_type="i64" shape="1" offset="65648420" size="8" />
			<output>
				<port id="0" precision="I64">
					<dim>1</dim>
				</port>
			</output>
		</layer>
		<layer id="230" name="__module.model/aten::index/Reshape_8" type="Reshape" version="opset1">
			<data special_zero="false" />
			<input>
				<port id="0" precision="BOOL">
					<dim>-1</dim>
					<dim>1</dim>
					<dim>1</dim>
					<dim>-1</dim>
					<dim>-1</dim>
				</port>
				<port id="1" precision="I64">
					<dim>1</dim>
				</port>
			</input>
			<output>
				<port id="2" precision="BOOL">
					<dim>-1</dim>
				</port>
			</output>
		</layer>
		<layer id="231" name="__module.model/aten::index/ShapeOf_5" type="ShapeOf" version="opset3">
			<data output_type="i32" />
			<input>
				<port id="0" precision="I32">
					<dim>-1</dim>
					<dim>1</dim>
					<dim>1</dim>
					<dim>-1</dim>
				</port>
			</input>
			<output>
				<port id="1" precision="I32">
					<dim>4</dim>
				</port>
			</output>
		</layer>
		<layer id="232" name="__module.model/aten::index/Reshape_12" type="Reshape" version="opset1">
			<data special_zero="false" />
			<input>
				<port id="0" precision="BOOL">
					<dim>-1</dim>
				</port>
				<port id="1" precision="I32">
					<dim>4</dim>
				</port>
			</input>
			<output>
				<port id="2" precision="BOOL" names="271,272">
					<dim>-1</dim>
					<dim>1</dim>
					<dim>1</dim>
					<dim>-1</dim>
				</port>
			</output>
		</layer>
		<layer id="233" name="__module.model/aten::__and__/BitwiseAnd_1" type="BitwiseAnd" version="opset13">
			<data auto_broadcast="numpy" />
			<input>
				<port id="0" precision="BOOL">
					<dim>1</dim>
					<dim>1</dim>
					<dim>-1</dim>
					<dim>-1</dim>
				</port>
				<port id="1" precision="BOOL">
					<dim>-1</dim>
					<dim>1</dim>
					<dim>1</dim>
					<dim>-1</dim>
				</port>
			</input>
			<output>
				<port id="2" precision="BOOL" names="273,causal_mask">
					<dim>-1</dim>
					<dim>1</dim>
					<dim>-1</dim>
					<dim>-1</dim>
				</port>
			</output>
		</layer>
		<layer id="234" name="Constant_51500" type="Const" version="opset1">
			<data element_type="i64" shape="1" offset="67909616" size="8" />
			<output>
				<port id="0" precision="I64">
					<dim>1</dim>
				</port>
			</output>
		</layer>
		<layer id="235" name="Constant_225" type="Const" version="opset1">
			<data element_type="i32" shape="" offset="0" size="4" />
			<output>
				<port id="0" precision="I32" />
			</output>
		</layer>
		<layer id="236" name="Unsqueeze_226" type="Unsqueeze" version="opset1">
			<input>
				<port id="0" precision="I64" />
				<port id="1" precision="I32" />
			</input>
			<output>
				<port id="2" precision="I64">
					<dim>1</dim>
				</port>
			</output>
		</layer>
		<layer id="237" name="__module.model/prim::ListConstruct" type="Concat" version="opset1">
			<data axis="0" />
			<input>
				<port id="0" precision="I64">
					<dim>1</dim>
				</port>
				<port id="1" precision="I64">
					<dim>1</dim>
				</port>
				<port id="2" precision="I64">
					<dim>1</dim>
				</port>
				<port id="3" precision="I64">
					<dim>1</dim>
				</port>
			</input>
			<output>
				<port id="4" precision="I64">
					<dim>4</dim>
				</port>
			</output>
		</layer>
		<layer id="238" name="__module.model/aten::expand/Broadcast" type="Broadcast" version="opset3">
			<data mode="bidirectional" />
			<input>
				<port id="0" precision="BOOL">
					<dim>-1</dim>
					<dim>1</dim>
					<dim>-1</dim>
					<dim>-1</dim>
				</port>
				<port id="1" precision="I64">
					<dim>4</dim>
				</port>
			</input>
			<output>
				<port id="2" precision="BOOL" names="275,mask">
					<dim>-1</dim>
					<dim>1</dim>
					<dim>-1</dim>
					<dim>-1</dim>
				</port>
			</output>
		</layer>
		<layer id="239" name="__module.model/aten::to/Convert_3" type="Const" version="opset1">
			<data element_type="f32" shape="" offset="0" size="4" />
			<output>
				<port id="0" precision="FP32" names="276" />
			</output>
		</layer>
		<layer id="240" name="__module.model/aten::to/Convert_4" type="Const" version="opset1">
			<data element_type="f32" shape="" offset="68475029" size="4" />
			<output>
				<port id="0" precision="FP32" names="278" />
			</output>
		</layer>
		<layer id="241" name="__module.model/aten::where/Select" type="Select" version="opset1">
			<data auto_broadcast="numpy" />
			<input>
				<port id="0" precision="BOOL">
					<dim>-1</dim>
					<dim>1</dim>
					<dim>-1</dim>
					<dim>-1</dim>
				</port>
				<port id="1" precision="FP32" />
				<port id="2" precision="FP32" />
			</input>
			<output>
				<port id="3" precision="FP32" names="1038,1039,1040,1193,1194,1195,1348,1349,1350,1503,1504,1505,1658,1659,1660,1813,1814,1815,1968,1969,1970,2123,2124,2125,2278,2279,2280,2433,2434,2435,2588,2589,2590,2743,2744,2745,280,2898,2899,2900,3053,3054,3055,3208,3209,3210,3363,3364,3365,3518,3519,3520,3673,3674,3675,418,419,420,573,574,575,728,729,730,883,884,885,attention_mask.5">
					<dim>-1</dim>
					<dim>1</dim>
					<dim>-1</dim>
					<dim>-1</dim>
				</port>
			</output>
		</layer>
		<layer id="242" name="Constant_1332" type="Const" version="opset1">
			<data element_type="i64" shape="1" offset="4" size="8" />
			<output>
				<port id="0" precision="I64">
					<dim>1</dim>
				</port>
			</output>
		</layer>
		<layer id="243" name="Constant_1335" type="Const" version="opset1">
			<data element_type="i64" shape="1" offset="67909616" size="8" />
			<output>
				<port id="0" precision="I64">
					<dim>1</dim>
				</port>
			</output>
		</layer>
		<layer id="244" name="Constant_1330" type="Const" version="opset1">
			<data element_type="i64" shape="1" offset="67909652" size="8" />
			<output>
				<port id="0" precision="I64">
					<dim>1</dim>
				</port>
			</output>
		</layer>
		<layer id="245" name="__module.model.layers.0.self_attn/aten::slice/Slice_15" type="Slice" version="opset8">
			<input>
				<port id="0" precision="FP32">
					<dim>-1</dim>
					<dim>1</dim>
					<dim>-1</dim>
					<dim>-1</dim>
				</port>
				<port id="1" precision="I64">
					<dim>1</dim>
				</port>
				<port id="2" precision="I64">
					<dim>1</dim>
				</port>
				<port id="3" precision="I64">
					<dim>1</dim>
				</port>
				<port id="4" precision="I64">
					<dim>1</dim>
				</port>
			</input>
			<output>
				<port id="5" precision="FP32" names="1041,1196,1351,1506,1661,1816,1971,2126,2281,2436,2591,2746,2901,3056,3211,3366,3521,3676,421,576,731,886,attention_mask.11,attention_mask.13,attention_mask.15,attention_mask.17,attention_mask.19,attention_mask.21,attention_mask.23,attention_mask.25,attention_mask.27,attention_mask.29,attention_mask.31,attention_mask.33,attention_mask.35,attention_mask.37,attention_mask.39,attention_mask.41,attention_mask.43,attention_mask.45,attention_mask.47,attention_mask.7,attention_mask.9,attention_mask_1">
					<dim>-1</dim>
					<dim>1</dim>
					<dim>-1</dim>
					<dim>-1</dim>
				</port>
			</output>
		</layer>
		<layer id="246" name="__module.model.layers.0.self_attn/aten::scaled_dot_product_attention/ConvertLike" type="Const" version="opset1">
			<data element_type="f32" shape="" offset="68475033" size="4" />
			<output>
				<port id="0" precision="FP32" />
			</output>
		</layer>
		<layer id="247" name="__module.model.layers.0.self_attn/aten::scaled_dot_product_attention/ScaledDotProductAttention" type="ScaledDotProductAttention" version="opset13">
			<data causal="false" />
			<input>
				<port id="0" precision="FP32">
					<dim>-1</dim>
					<dim>32</dim>
					<dim>-1</dim>
					<dim>64</dim>
				</port>
				<port id="1" precision="FP32">
					<dim>-1</dim>
					<dim>32</dim>
					<dim>-1</dim>
					<dim>64</dim>
				</port>
				<port id="2" precision="FP32">
					<dim>-1</dim>
					<dim>32</dim>
					<dim>-1</dim>
					<dim>64</dim>
				</port>
				<port id="3" precision="FP32">
					<dim>-1</dim>
					<dim>1</dim>
					<dim>-1</dim>
					<dim>-1</dim>
				</port>
				<port id="4" precision="FP32" />
			</input>
			<output>
				<port id="5" precision="FP32" names="422,attn_output.1">
					<dim>-1</dim>
					<dim>32</dim>
					<dim>-1</dim>
					<dim>64</dim>
				</port>
			</output>
		</layer>
		<layer id="248" name="__module.model.layers.0.self_attn/aten::transpose/Constant_3" type="Const" version="opset1">
			<data element_type="i32" shape="4" offset="67909472" size="16" />
			<output>
				<port id="0" precision="I32">
					<dim>4</dim>
				</port>
			</output>
		</layer>
		<layer id="249" name="__module.model.layers.0.self_attn/aten::transpose/Transpose_3" type="Transpose" version="opset1">
			<input>
				<port id="0" precision="FP32">
					<dim>-1</dim>
					<dim>32</dim>
					<dim>-1</dim>
					<dim>64</dim>
				</port>
				<port id="1" precision="I32">
					<dim>4</dim>
				</port>
			</input>
			<output>
				<port id="2" precision="FP32" names="423">
					<dim>-1</dim>
					<dim>-1</dim>
					<dim>32</dim>
					<dim>64</dim>
				</port>
			</output>
		</layer>
		<layer id="250" name="Constant_64985" type="Const" version="opset1">
			<data element_type="i64" shape="3" offset="68475037" size="24" />
			<output>
				<port id="0" precision="I64">
					<dim>3</dim>
				</port>
			</output>
		</layer>
		<layer id="251" name="__module.model.layers.0.self_attn/aten::reshape/Reshape_2" type="Reshape" version="opset1">
			<data special_zero="true" />
			<input>
				<port id="0" precision="FP32">
					<dim>-1</dim>
					<dim>-1</dim>
					<dim>32</dim>
					<dim>64</dim>
				</port>
				<port id="1" precision="I64">
					<dim>3</dim>
				</port>
			</input>
			<output>
				<port id="2" precision="FP32" names="426">
					<dim>-1</dim>
					<dim>-1</dim>
					<dim>2048</dim>
				</port>
			</output>
		</layer>
		<layer id="252" name="self.model.layers.0.self_attn.o_proj.weight" type="Const" version="opset1">
			<data element_type="u4" shape="2048, 32, 64" offset="68475061" size="2097152" />
			<output>
				<port id="0" precision="U4">
					<dim>2048</dim>
					<dim>32</dim>
					<dim>64</dim>
				</port>
			</output>
		</layer>
		<layer id="253" name="Convert_414404" type="Convert" version="opset1">
			<data destination_type="f16" />
			<input>
				<port id="0" precision="U4">
					<dim>2048</dim>
					<dim>32</dim>
					<dim>64</dim>
				</port>
			</input>
			<output>
				<port id="1" precision="FP16">
					<dim>2048</dim>
					<dim>32</dim>
					<dim>64</dim>
				</port>
			</output>
		</layer>
		<layer id="254" name="self.model.layers.0.self_attn.o_proj.weight/zero_point" type="Const" version="opset1">
			<data element_type="u4" shape="2048, 32, 1" offset="70572213" size="32768" />
			<output>
				<port id="0" precision="U4">
					<dim>2048</dim>
					<dim>32</dim>
					<dim>1</dim>
				</port>
			</output>
		</layer>
		<layer id="255" name="Convert_414407" type="Convert" version="opset1">
			<data destination_type="f16" />
			<input>
				<port id="0" precision="U4">
					<dim>2048</dim>
					<dim>32</dim>
					<dim>1</dim>
				</port>
			</input>
			<output>
				<port id="1" precision="FP16">
					<dim>2048</dim>
					<dim>32</dim>
					<dim>1</dim>
				</port>
			</output>
		</layer>
		<layer id="256" name="self.model.layers.0.self_attn.o_proj.weight/zero_point/subtract" type="Subtract" version="opset1">
			<data auto_broadcast="numpy" />
			<input>
				<port id="0" precision="FP16">
					<dim>2048</dim>
					<dim>32</dim>
					<dim>64</dim>
				</port>
				<port id="1" precision="FP16">
					<dim>2048</dim>
					<dim>32</dim>
					<dim>1</dim>
				</port>
			</input>
			<output>
				<port id="2" precision="FP16">
					<dim>2048</dim>
					<dim>32</dim>
					<dim>64</dim>
				</port>
			</output>
		</layer>
		<layer id="257" name="self.model.layers.0.self_attn.o_proj.weight/scale" type="Const" version="opset1">
			<data element_type="f16" shape="2048, 32, 1" offset="70604981" size="131072" />
			<output>
				<port id="0" precision="FP16">
					<dim>2048</dim>
					<dim>32</dim>
					<dim>1</dim>
				</port>
			</output>
		</layer>
		<layer id="258" name="self.model.layers.0.self_attn.o_proj.weight/fq_weights_1" type="Multiply" version="opset1">
			<data auto_broadcast="numpy" />
			<input>
				<port id="0" precision="FP16">
					<dim>2048</dim>
					<dim>32</dim>
					<dim>64</dim>
				</port>
				<port id="1" precision="FP16">
					<dim>2048</dim>
					<dim>32</dim>
					<dim>1</dim>
				</port>
			</input>
			<output>
				<port id="2" precision="FP16">
					<dim>2048</dim>
					<dim>32</dim>
					<dim>64</dim>
				</port>
			</output>
		</layer>
		<layer id="259" name="Constant_414412" type="Const" version="opset1">
			<data element_type="i64" shape="2" offset="67909424" size="16" />
			<output>
				<port id="0" precision="I64">
					<dim>2</dim>
				</port>
			</output>
		</layer>
		<layer id="260" name="Reshape_414413" type="Reshape" version="opset1">
			<data special_zero="false" />
			<input>
				<port id="0" precision="FP16">
					<dim>2048</dim>
					<dim>32</dim>
					<dim>64</dim>
				</port>
				<port id="1" precision="I64">
					<dim>2</dim>
				</port>
			</input>
			<output>
				<port id="2" precision="FP16">
					<dim>2048</dim>
					<dim>2048</dim>
				</port>
			</output>
		</layer>
		<layer id="261" name="__module.model.layers.0.self_attn.o_proj/ov_ext::linear/Convert" type="Convert" version="opset1">
			<data destination_type="f32" />
			<rt_info>
				<attribute name="decompression" version="0" />
			</rt_info>
			<input>
				<port id="0" precision="FP16">
					<dim>2048</dim>
					<dim>2048</dim>
				</port>
			</input>
			<output>
				<port id="1" precision="FP32">
					<dim>2048</dim>
					<dim>2048</dim>
				</port>
			</output>
		</layer>
		<layer id="262" name="__module.model.layers.0.self_attn.o_proj/ov_ext::linear/MatMul" type="MatMul" version="opset1">
			<data transpose_a="false" transpose_b="true" />
			<input>
				<port id="0" precision="FP32">
					<dim>-1</dim>
					<dim>-1</dim>
					<dim>2048</dim>
				</port>
				<port id="1" precision="FP32">
					<dim>2048</dim>
					<dim>2048</dim>
				</port>
			</input>
			<output>
				<port id="2" precision="FP32" names="429,431,hidden_states.17">
					<dim>-1</dim>
					<dim>-1</dim>
					<dim>2048</dim>
				</port>
			</output>
		</layer>
		<layer id="263" name="__module.model.layers.0/aten::add/Add" type="Add" version="opset1">
			<data auto_broadcast="numpy" />
			<input>
				<port id="0" precision="FP32">
					<dim>-1</dim>
					<dim>-1</dim>
					<dim>2048</dim>
				</port>
				<port id="1" precision="FP32">
					<dim>-1</dim>
					<dim>-1</dim>
					<dim>2048</dim>
				</port>
			</input>
			<output>
				<port id="2" precision="FP32" names="434,436,447,hidden_states.19,hidden_states.21">
					<dim>-1</dim>
					<dim>-1</dim>
					<dim>2048</dim>
				</port>
			</output>
		</layer>
		<layer id="264" name="Constant_58234" type="Const" version="opset1">
			<data element_type="f32" shape="1, 1, 2048" offset="70736053" size="8192" />
			<output>
				<port id="0" precision="FP32">
					<dim>1</dim>
					<dim>1</dim>
					<dim>2048</dim>
				</port>
			</output>
		</layer>
		<layer id="265" name="Constant_58233" type="Const" version="opset1">
			<data element_type="f32" shape="1, 1, 1" offset="65648412" size="4" />
			<output>
				<port id="0" precision="FP32">
					<dim>1</dim>
					<dim>1</dim>
					<dim>1</dim>
				</port>
			</output>
		</layer>
		<layer id="266" name="Constant_58231" type="Const" version="opset1">
			<data element_type="f32" shape="1, 1, 1" offset="65648416" size="4" />
			<output>
				<port id="0" precision="FP32">
					<dim>1</dim>
					<dim>1</dim>
					<dim>1</dim>
				</port>
			</output>
		</layer>
		<layer id="267" name="__module.model.layers.0.post_attention_layernorm/aten::pow/Power" type="Power" version="opset1">
			<data auto_broadcast="numpy" />
			<input>
				<port id="0" precision="FP32">
					<dim>-1</dim>
					<dim>-1</dim>
					<dim>2048</dim>
				</port>
				<port id="1" precision="FP32">
					<dim>1</dim>
					<dim>1</dim>
					<dim>1</dim>
				</port>
			</input>
			<output>
				<port id="2" precision="FP32" names="437">
					<dim>-1</dim>
					<dim>-1</dim>
					<dim>2048</dim>
				</port>
			</output>
		</layer>
		<layer id="268" name="Constant_1405" type="Const" version="opset1">
			<data element_type="i64" shape="1" offset="65648420" size="8" />
			<output>
				<port id="0" precision="I64" names="438">
					<dim>1</dim>
				</port>
			</output>
		</layer>
		<layer id="269" name="__module.model.layers.0.post_attention_layernorm/aten::mean/ReduceMean" type="ReduceMean" version="opset1">
			<data keep_dims="true" />
			<input>
				<port id="0" precision="FP32">
					<dim>-1</dim>
					<dim>-1</dim>
					<dim>2048</dim>
				</port>
				<port id="1" precision="I64">
					<dim>1</dim>
				</port>
			</input>
			<output>
				<port id="2" precision="FP32" names="439,variance.3">
					<dim>-1</dim>
					<dim>-1</dim>
					<dim>1</dim>
				</port>
			</output>
		</layer>
		<layer id="270" name="Constant_58232" type="Const" version="opset1">
			<data element_type="f32" shape="1, 1, 1" offset="65648428" size="4" />
			<output>
				<port id="0" precision="FP32">
					<dim>1</dim>
					<dim>1</dim>
					<dim>1</dim>
				</port>
			</output>
		</layer>
		<layer id="271" name="__module.model.layers.0.post_attention_layernorm/aten::add/Add" type="Add" version="opset1">
			<data auto_broadcast="numpy" />
			<input>
				<port id="0" precision="FP32">
					<dim>-1</dim>
					<dim>-1</dim>
					<dim>1</dim>
				</port>
				<port id="1" precision="FP32">
					<dim>1</dim>
					<dim>1</dim>
					<dim>1</dim>
				</port>
			</input>
			<output>
				<port id="2" precision="FP32" names="440">
					<dim>-1</dim>
					<dim>-1</dim>
					<dim>1</dim>
				</port>
			</output>
		</layer>
		<layer id="272" name="__module.model.layers.0.post_attention_layernorm/aten::rsqrt/Sqrt" type="Sqrt" version="opset1">
			<input>
				<port id="0" precision="FP32">
					<dim>-1</dim>
					<dim>-1</dim>
					<dim>1</dim>
				</port>
			</input>
			<output>
				<port id="1" precision="FP32">
					<dim>-1</dim>
					<dim>-1</dim>
					<dim>1</dim>
				</port>
			</output>
		</layer>
		<layer id="273" name="__module.model.layers.0.post_attention_layernorm/aten::rsqrt/Divide" type="Divide" version="opset1">
			<data auto_broadcast="numpy" m_pythondiv="true" />
			<input>
				<port id="0" precision="FP32">
					<dim>1</dim>
					<dim>1</dim>
					<dim>1</dim>
				</port>
				<port id="1" precision="FP32">
					<dim>-1</dim>
					<dim>-1</dim>
					<dim>1</dim>
				</port>
			</input>
			<output>
				<port id="2" precision="FP32" names="441">
					<dim>-1</dim>
					<dim>-1</dim>
					<dim>1</dim>
				</port>
			</output>
		</layer>
		<layer id="274" name="__module.model.layers.0.post_attention_layernorm/aten::mul/Multiply" type="Multiply" version="opset1">
			<data auto_broadcast="numpy" />
			<input>
				<port id="0" precision="FP32">
					<dim>-1</dim>
					<dim>-1</dim>
					<dim>2048</dim>
				</port>
				<port id="1" precision="FP32">
					<dim>-1</dim>
					<dim>-1</dim>
					<dim>1</dim>
				</port>
			</input>
			<output>
				<port id="2" precision="FP32" names="442,443,hidden_states.23,hidden_states.25">
					<dim>-1</dim>
					<dim>-1</dim>
					<dim>2048</dim>
				</port>
			</output>
		</layer>
		<layer id="275" name="__module.model.layers.0.post_attention_layernorm/aten::mul/Multiply_1" type="Multiply" version="opset1">
			<data auto_broadcast="numpy" />
			<input>
				<port id="0" precision="FP32">
					<dim>1</dim>
					<dim>1</dim>
					<dim>2048</dim>
				</port>
				<port id="1" precision="FP32">
					<dim>-1</dim>
					<dim>-1</dim>
					<dim>2048</dim>
				</port>
			</input>
			<output>
				<port id="2" precision="FP32" names="444,446">
					<dim>-1</dim>
					<dim>-1</dim>
					<dim>2048</dim>
				</port>
			</output>
		</layer>
		<layer id="276" name="self.model.layers.0.mlp.gate_proj.weight" type="Const" version="opset1">
			<data element_type="u4" shape="5632, 32, 64" offset="70744245" size="5767168" />
			<output>
				<port id="0" precision="U4">
					<dim>5632</dim>
					<dim>32</dim>
					<dim>64</dim>
				</port>
			</output>
		</layer>
		<layer id="277" name="Convert_98726" type="Convert" version="opset1">
			<data destination_type="f16" />
			<input>
				<port id="0" precision="U4">
					<dim>5632</dim>
					<dim>32</dim>
					<dim>64</dim>
				</port>
			</input>
			<output>
				<port id="1" precision="FP16">
					<dim>5632</dim>
					<dim>32</dim>
					<dim>64</dim>
				</port>
			</output>
		</layer>
		<layer id="278" name="self.model.layers.0.mlp.gate_proj.weight/zero_point" type="Const" version="opset1">
			<data element_type="u4" shape="5632, 32, 1" offset="76511413" size="90112" />
			<output>
				<port id="0" precision="U4">
					<dim>5632</dim>
					<dim>32</dim>
					<dim>1</dim>
				</port>
			</output>
		</layer>
		<layer id="279" name="Convert_98729" type="Convert" version="opset1">
			<data destination_type="f16" />
			<input>
				<port id="0" precision="U4">
					<dim>5632</dim>
					<dim>32</dim>
					<dim>1</dim>
				</port>
			</input>
			<output>
				<port id="1" precision="FP16">
					<dim>5632</dim>
					<dim>32</dim>
					<dim>1</dim>
				</port>
			</output>
		</layer>
		<layer id="280" name="self.model.layers.0.mlp.gate_proj.weight/zero_point/subtract" type="Subtract" version="opset1">
			<data auto_broadcast="numpy" />
			<input>
				<port id="0" precision="FP16">
					<dim>5632</dim>
					<dim>32</dim>
					<dim>64</dim>
				</port>
				<port id="1" precision="FP16">
					<dim>5632</dim>
					<dim>32</dim>
					<dim>1</dim>
				</port>
			</input>
			<output>
				<port id="2" precision="FP16">
					<dim>5632</dim>
					<dim>32</dim>
					<dim>64</dim>
				</port>
			</output>
		</layer>
		<layer id="281" name="self.model.layers.0.mlp.gate_proj.weight/scale" type="Const" version="opset1">
			<data element_type="f16" shape="5632, 32, 1" offset="76601525" size="360448" />
			<output>
				<port id="0" precision="FP16">
					<dim>5632</dim>
					<dim>32</dim>
					<dim>1</dim>
				</port>
			</output>
		</layer>
		<layer id="282" name="self.model.layers.0.mlp.gate_proj.weight/fq_weights_1" type="Multiply" version="opset1">
			<data auto_broadcast="numpy" />
			<input>
				<port id="0" precision="FP16">
					<dim>5632</dim>
					<dim>32</dim>
					<dim>64</dim>
				</port>
				<port id="1" precision="FP16">
					<dim>5632</dim>
					<dim>32</dim>
					<dim>1</dim>
				</port>
			</input>
			<output>
				<port id="2" precision="FP16">
					<dim>5632</dim>
					<dim>32</dim>
					<dim>64</dim>
				</port>
			</output>
		</layer>
		<layer id="283" name="Constant_98734" type="Const" version="opset1">
			<data element_type="i64" shape="2" offset="76961973" size="16" />
			<output>
				<port id="0" precision="I64">
					<dim>2</dim>
				</port>
			</output>
		</layer>
		<layer id="284" name="Reshape_98735" type="Reshape" version="opset1">
			<data special_zero="false" />
			<input>
				<port id="0" precision="FP16">
					<dim>5632</dim>
					<dim>32</dim>
					<dim>64</dim>
				</port>
				<port id="1" precision="I64">
					<dim>2</dim>
				</port>
			</input>
			<output>
				<port id="2" precision="FP16">
					<dim>5632</dim>
					<dim>2048</dim>
				</port>
			</output>
		</layer>
		<layer id="285" name="__module.model.layers.0.mlp.gate_proj/ov_ext::linear/Convert" type="Convert" version="opset1">
			<data destination_type="f32" />
			<rt_info>
				<attribute name="decompression" version="0" />
			</rt_info>
			<input>
				<port id="0" precision="FP16">
					<dim>5632</dim>
					<dim>2048</dim>
				</port>
			</input>
			<output>
				<port id="1" precision="FP32">
					<dim>5632</dim>
					<dim>2048</dim>
				</port>
			</output>
		</layer>
		<layer id="286" name="__module.model.layers.0.mlp.gate_proj/ov_ext::linear/MatMul" type="MatMul" version="opset1">
			<data transpose_a="false" transpose_b="true" />
			<input>
				<port id="0" precision="FP32">
					<dim>-1</dim>
					<dim>-1</dim>
					<dim>2048</dim>
				</port>
				<port id="1" precision="FP32">
					<dim>5632</dim>
					<dim>2048</dim>
				</port>
			</input>
			<output>
				<port id="2" precision="FP32" names="452,input.1">
					<dim>-1</dim>
					<dim>-1</dim>
					<dim>5632</dim>
				</port>
			</output>
		</layer>
		<layer id="287" name="__module.model.layers.0.mlp.act_fn/aten::silu/Swish" type="Swish" version="opset4">
			<input>
				<port id="0" precision="FP32">
					<dim>-1</dim>
					<dim>-1</dim>
					<dim>5632</dim>
				</port>
			</input>
			<output>
				<port id="1" precision="FP32" names="453">
					<dim>-1</dim>
					<dim>-1</dim>
					<dim>5632</dim>
				</port>
			</output>
		</layer>
		<layer id="288" name="self.model.layers.0.mlp.up_proj.weight" type="Const" version="opset1">
			<data element_type="u4" shape="5632, 32, 64" offset="76961989" size="5767168" />
			<output>
				<port id="0" precision="U4">
					<dim>5632</dim>
					<dim>32</dim>
					<dim>64</dim>
				</port>
			</output>
		</layer>
		<layer id="289" name="Convert_93943" type="Convert" version="opset1">
			<data destination_type="f16" />
			<input>
				<port id="0" precision="U4">
					<dim>5632</dim>
					<dim>32</dim>
					<dim>64</dim>
				</port>
			</input>
			<output>
				<port id="1" precision="FP16">
					<dim>5632</dim>
					<dim>32</dim>
					<dim>64</dim>
				</port>
			</output>
		</layer>
		<layer id="290" name="self.model.layers.0.mlp.up_proj.weight/zero_point" type="Const" version="opset1">
			<data element_type="u4" shape="5632, 32, 1" offset="82729157" size="90112" />
			<output>
				<port id="0" precision="U4">
					<dim>5632</dim>
					<dim>32</dim>
					<dim>1</dim>
				</port>
			</output>
		</layer>
		<layer id="291" name="Convert_93946" type="Convert" version="opset1">
			<data destination_type="f16" />
			<input>
				<port id="0" precision="U4">
					<dim>5632</dim>
					<dim>32</dim>
					<dim>1</dim>
				</port>
			</input>
			<output>
				<port id="1" precision="FP16">
					<dim>5632</dim>
					<dim>32</dim>
					<dim>1</dim>
				</port>
			</output>
		</layer>
		<layer id="292" name="self.model.layers.0.mlp.up_proj.weight/zero_point/subtract" type="Subtract" version="opset1">
			<data auto_broadcast="numpy" />
			<input>
				<port id="0" precision="FP16">
					<dim>5632</dim>
					<dim>32</dim>
					<dim>64</dim>
				</port>
				<port id="1" precision="FP16">
					<dim>5632</dim>
					<dim>32</dim>
					<dim>1</dim>
				</port>
			</input>
			<output>
				<port id="2" precision="FP16">
					<dim>5632</dim>
					<dim>32</dim>
					<dim>64</dim>
				</port>
			</output>
		</layer>
		<layer id="293" name="self.model.layers.0.mlp.up_proj.weight/scale" type="Const" version="opset1">
			<data element_type="f16" shape="5632, 32, 1" offset="82819269" size="360448" />
			<output>
				<port id="0" precision="FP16">
					<dim>5632</dim>
					<dim>32</dim>
					<dim>1</dim>
				</port>
			</output>
		</layer>
		<layer id="294" name="self.model.layers.0.mlp.up_proj.weight/fq_weights_1" type="Multiply" version="opset1">
			<data auto_broadcast="numpy" />
			<input>
				<port id="0" precision="FP16">
					<dim>5632</dim>
					<dim>32</dim>
					<dim>64</dim>
				</port>
				<port id="1" precision="FP16">
					<dim>5632</dim>
					<dim>32</dim>
					<dim>1</dim>
				</port>
			</input>
			<output>
				<port id="2" precision="FP16">
					<dim>5632</dim>
					<dim>32</dim>
					<dim>64</dim>
				</port>
			</output>
		</layer>
		<layer id="295" name="Constant_93951" type="Const" version="opset1">
			<data element_type="i64" shape="2" offset="76961973" size="16" />
			<output>
				<port id="0" precision="I64">
					<dim>2</dim>
				</port>
			</output>
		</layer>
		<layer id="296" name="Reshape_93952" type="Reshape" version="opset1">
			<data special_zero="false" />
			<input>
				<port id="0" precision="FP16">
					<dim>5632</dim>
					<dim>32</dim>
					<dim>64</dim>
				</port>
				<port id="1" precision="I64">
					<dim>2</dim>
				</port>
			</input>
			<output>
				<port id="2" precision="FP16">
					<dim>5632</dim>
					<dim>2048</dim>
				</port>
			</output>
		</layer>
		<layer id="297" name="__module.model.layers.0.mlp.up_proj/ov_ext::linear/Convert" type="Convert" version="opset1">
			<data destination_type="f32" />
			<rt_info>
				<attribute name="decompression" version="0" />
			</rt_info>
			<input>
				<port id="0" precision="FP16">
					<dim>5632</dim>
					<dim>2048</dim>
				</port>
			</input>
			<output>
				<port id="1" precision="FP32">
					<dim>5632</dim>
					<dim>2048</dim>
				</port>
			</output>
		</layer>
		<layer id="298" name="__module.model.layers.0.mlp.up_proj/ov_ext::linear/MatMul" type="MatMul" version="opset1">
			<data transpose_a="false" transpose_b="true" />
			<input>
				<port id="0" precision="FP32">
					<dim>-1</dim>
					<dim>-1</dim>
					<dim>2048</dim>
				</port>
				<port id="1" precision="FP32">
					<dim>5632</dim>
					<dim>2048</dim>
				</port>
			</input>
			<output>
				<port id="2" precision="FP32" names="455">
					<dim>-1</dim>
					<dim>-1</dim>
					<dim>5632</dim>
				</port>
			</output>
		</layer>
		<layer id="299" name="__module.model.layers.0.mlp/aten::mul/Multiply" type="Multiply" version="opset1">
			<data auto_broadcast="numpy" />
			<input>
				<port id="0" precision="FP32">
					<dim>-1</dim>
					<dim>-1</dim>
					<dim>5632</dim>
				</port>
				<port id="1" precision="FP32">
					<dim>-1</dim>
					<dim>-1</dim>
					<dim>5632</dim>
				</port>
			</input>
			<output>
				<port id="2" precision="FP32" names="456">
					<dim>-1</dim>
					<dim>-1</dim>
					<dim>5632</dim>
				</port>
			</output>
		</layer>
		<layer id="300" name="self.model.layers.0.mlp.down_proj.weight" type="Const" version="opset1">
			<data element_type="u4" shape="2048, 88, 64" offset="83179717" size="5767168" />
			<output>
				<port id="0" precision="U4">
					<dim>2048</dim>
					<dim>88</dim>
					<dim>64</dim>
				</port>
			</output>
		</layer>
		<layer id="301" name="Convert_103509" type="Convert" version="opset1">
			<data destination_type="f16" />
			<input>
				<port id="0" precision="U4">
					<dim>2048</dim>
					<dim>88</dim>
					<dim>64</dim>
				</port>
			</input>
			<output>
				<port id="1" precision="FP16">
					<dim>2048</dim>
					<dim>88</dim>
					<dim>64</dim>
				</port>
			</output>
		</layer>
		<layer id="302" name="self.model.layers.0.mlp.down_proj.weight/zero_point" type="Const" version="opset1">
			<data element_type="u4" shape="2048, 88, 1" offset="88946885" size="90112" />
			<output>
				<port id="0" precision="U4">
					<dim>2048</dim>
					<dim>88</dim>
					<dim>1</dim>
				</port>
			</output>
		</layer>
		<layer id="303" name="Convert_103512" type="Convert" version="opset1">
			<data destination_type="f16" />
			<input>
				<port id="0" precision="U4">
					<dim>2048</dim>
					<dim>88</dim>
					<dim>1</dim>
				</port>
			</input>
			<output>
				<port id="1" precision="FP16">
					<dim>2048</dim>
					<dim>88</dim>
					<dim>1</dim>
				</port>
			</output>
		</layer>
		<layer id="304" name="self.model.layers.0.mlp.down_proj.weight/zero_point/subtract" type="Subtract" version="opset1">
			<data auto_broadcast="numpy" />
			<input>
				<port id="0" precision="FP16">
					<dim>2048</dim>
					<dim>88</dim>
					<dim>64</dim>
				</port>
				<port id="1" precision="FP16">
					<dim>2048</dim>
					<dim>88</dim>
					<dim>1</dim>
				</port>
			</input>
			<output>
				<port id="2" precision="FP16">
					<dim>2048</dim>
					<dim>88</dim>
					<dim>64</dim>
				</port>
			</output>
		</layer>
		<layer id="305" name="self.model.layers.0.mlp.down_proj.weight/scale" type="Const" version="opset1">
			<data element_type="f16" shape="2048, 88, 1" offset="89036997" size="360448" />
			<output>
				<port id="0" precision="FP16">
					<dim>2048</dim>
					<dim>88</dim>
					<dim>1</dim>
				</port>
			</output>
		</layer>
		<layer id="306" name="self.model.layers.0.mlp.down_proj.weight/fq_weights_1" type="Multiply" version="opset1">
			<data auto_broadcast="numpy" />
			<input>
				<port id="0" precision="FP16">
					<dim>2048</dim>
					<dim>88</dim>
					<dim>64</dim>
				</port>
				<port id="1" precision="FP16">
					<dim>2048</dim>
					<dim>88</dim>
					<dim>1</dim>
				</port>
			</input>
			<output>
				<port id="2" precision="FP16">
					<dim>2048</dim>
					<dim>88</dim>
					<dim>64</dim>
				</port>
			</output>
		</layer>
		<layer id="307" name="Constant_103517" type="Const" version="opset1">
			<data element_type="i64" shape="2" offset="89397445" size="16" />
			<output>
				<port id="0" precision="I64">
					<dim>2</dim>
				</port>
			</output>
		</layer>
		<layer id="308" name="Reshape_103518" type="Reshape" version="opset1">
			<data special_zero="false" />
			<input>
				<port id="0" precision="FP16">
					<dim>2048</dim>
					<dim>88</dim>
					<dim>64</dim>
				</port>
				<port id="1" precision="I64">
					<dim>2</dim>
				</port>
			</input>
			<output>
				<port id="2" precision="FP16">
					<dim>2048</dim>
					<dim>5632</dim>
				</port>
			</output>
		</layer>
		<layer id="309" name="__module.model.layers.0.mlp.down_proj/ov_ext::linear/Convert" type="Convert" version="opset1">
			<data destination_type="f32" />
			<rt_info>
				<attribute name="decompression" version="0" />
			</rt_info>
			<input>
				<port id="0" precision="FP16">
					<dim>2048</dim>
					<dim>5632</dim>
				</port>
			</input>
			<output>
				<port id="1" precision="FP32">
					<dim>2048</dim>
					<dim>5632</dim>
				</port>
			</output>
		</layer>
		<layer id="310" name="__module.model.layers.0.mlp.down_proj/ov_ext::linear/MatMul" type="MatMul" version="opset1">
			<data transpose_a="false" transpose_b="true" />
			<input>
				<port id="0" precision="FP32">
					<dim>-1</dim>
					<dim>-1</dim>
					<dim>5632</dim>
				</port>
				<port id="1" precision="FP32">
					<dim>2048</dim>
					<dim>5632</dim>
				</port>
			</input>
			<output>
				<port id="2" precision="FP32" names="458,hidden_states.27">
					<dim>-1</dim>
					<dim>-1</dim>
					<dim>2048</dim>
				</port>
			</output>
		</layer>
		<layer id="311" name="__module.model.layers.0/aten::add/Add_1" type="Add" version="opset1">
			<data auto_broadcast="numpy" />
			<input>
				<port id="0" precision="FP32">
					<dim>-1</dim>
					<dim>-1</dim>
					<dim>2048</dim>
				</port>
				<port id="1" precision="FP32">
					<dim>-1</dim>
					<dim>-1</dim>
					<dim>2048</dim>
				</port>
			</input>
			<output>
				<port id="2" precision="FP32" names="459,461,469,480,hidden_states.29,hidden_states.31">
					<dim>-1</dim>
					<dim>-1</dim>
					<dim>2048</dim>
				</port>
			</output>
		</layer>
		<layer id="312" name="Constant_58238" type="Const" version="opset1">
			<data element_type="f32" shape="1, 1, 2048" offset="89397461" size="8192" />
			<output>
				<port id="0" precision="FP32">
					<dim>1</dim>
					<dim>1</dim>
					<dim>2048</dim>
				</port>
			</output>
		</layer>
		<layer id="313" name="Constant_58237" type="Const" version="opset1">
			<data element_type="f32" shape="1, 1, 1" offset="65648412" size="4" />
			<output>
				<port id="0" precision="FP32">
					<dim>1</dim>
					<dim>1</dim>
					<dim>1</dim>
				</port>
			</output>
		</layer>
		<layer id="314" name="Constant_58235" type="Const" version="opset1">
			<data element_type="f32" shape="1, 1, 1" offset="65648416" size="4" />
			<output>
				<port id="0" precision="FP32">
					<dim>1</dim>
					<dim>1</dim>
					<dim>1</dim>
				</port>
			</output>
		</layer>
		<layer id="315" name="__module.model.layers.1.input_layernorm/aten::pow/Power" type="Power" version="opset1">
			<data auto_broadcast="numpy" />
			<input>
				<port id="0" precision="FP32">
					<dim>-1</dim>
					<dim>-1</dim>
					<dim>2048</dim>
				</port>
				<port id="1" precision="FP32">
					<dim>1</dim>
					<dim>1</dim>
					<dim>1</dim>
				</port>
			</input>
			<output>
				<port id="2" precision="FP32" names="470">
					<dim>-1</dim>
					<dim>-1</dim>
					<dim>2048</dim>
				</port>
			</output>
		</layer>
		<layer id="316" name="Constant_1479" type="Const" version="opset1">
			<data element_type="i64" shape="1" offset="65648420" size="8" />
			<output>
				<port id="0" precision="I64" names="471">
					<dim>1</dim>
				</port>
			</output>
		</layer>
		<layer id="317" name="__module.model.layers.1.input_layernorm/aten::mean/ReduceMean" type="ReduceMean" version="opset1">
			<data keep_dims="true" />
			<input>
				<port id="0" precision="FP32">
					<dim>-1</dim>
					<dim>-1</dim>
					<dim>2048</dim>
				</port>
				<port id="1" precision="I64">
					<dim>1</dim>
				</port>
			</input>
			<output>
				<port id="2" precision="FP32" names="472,variance.5">
					<dim>-1</dim>
					<dim>-1</dim>
					<dim>1</dim>
				</port>
			</output>
		</layer>
		<layer id="318" name="Constant_58236" type="Const" version="opset1">
			<data element_type="f32" shape="1, 1, 1" offset="65648428" size="4" />
			<output>
				<port id="0" precision="FP32">
					<dim>1</dim>
					<dim>1</dim>
					<dim>1</dim>
				</port>
			</output>
		</layer>
		<layer id="319" name="__module.model.layers.1.input_layernorm/aten::add/Add" type="Add" version="opset1">
			<data auto_broadcast="numpy" />
			<input>
				<port id="0" precision="FP32">
					<dim>-1</dim>
					<dim>-1</dim>
					<dim>1</dim>
				</port>
				<port id="1" precision="FP32">
					<dim>1</dim>
					<dim>1</dim>
					<dim>1</dim>
				</port>
			</input>
			<output>
				<port id="2" precision="FP32" names="473">
					<dim>-1</dim>
					<dim>-1</dim>
					<dim>1</dim>
				</port>
			</output>
		</layer>
		<layer id="320" name="__module.model.layers.1.input_layernorm/aten::rsqrt/Sqrt" type="Sqrt" version="opset1">
			<input>
				<port id="0" precision="FP32">
					<dim>-1</dim>
					<dim>-1</dim>
					<dim>1</dim>
				</port>
			</input>
			<output>
				<port id="1" precision="FP32">
					<dim>-1</dim>
					<dim>-1</dim>
					<dim>1</dim>
				</port>
			</output>
		</layer>
		<layer id="321" name="__module.model.layers.1.input_layernorm/aten::rsqrt/Divide" type="Divide" version="opset1">
			<data auto_broadcast="numpy" m_pythondiv="true" />
			<input>
				<port id="0" precision="FP32">
					<dim>1</dim>
					<dim>1</dim>
					<dim>1</dim>
				</port>
				<port id="1" precision="FP32">
					<dim>-1</dim>
					<dim>-1</dim>
					<dim>1</dim>
				</port>
			</input>
			<output>
				<port id="2" precision="FP32" names="474">
					<dim>-1</dim>
					<dim>-1</dim>
					<dim>1</dim>
				</port>
			</output>
		</layer>
		<layer id="322" name="__module.model.layers.1.input_layernorm/aten::mul/Multiply" type="Multiply" version="opset1">
			<data auto_broadcast="numpy" />
			<input>
				<port id="0" precision="FP32">
					<dim>-1</dim>
					<dim>-1</dim>
					<dim>2048</dim>
				</port>
				<port id="1" precision="FP32">
					<dim>-1</dim>
					<dim>-1</dim>
					<dim>1</dim>
				</port>
			</input>
			<output>
				<port id="2" precision="FP32" names="475,476,hidden_states.33,hidden_states.35">
					<dim>-1</dim>
					<dim>-1</dim>
					<dim>2048</dim>
				</port>
			</output>
		</layer>
		<layer id="323" name="__module.model.layers.1.input_layernorm/aten::mul/Multiply_1" type="Multiply" version="opset1">
			<data auto_broadcast="numpy" />
			<input>
				<port id="0" precision="FP32">
					<dim>1</dim>
					<dim>1</dim>
					<dim>2048</dim>
				</port>
				<port id="1" precision="FP32">
					<dim>-1</dim>
					<dim>-1</dim>
					<dim>2048</dim>
				</port>
			</input>
			<output>
				<port id="2" precision="FP32" names="477,479,hidden_states.37">
					<dim>-1</dim>
					<dim>-1</dim>
					<dim>2048</dim>
				</port>
			</output>
		</layer>
		<layer id="324" name="self.model.layers.1.self_attn.q_proj.weight" type="Const" version="opset1">
			<data element_type="u4" shape="2048, 32, 64" offset="89405653" size="2097152" />
			<output>
				<port id="0" precision="U4">
					<dim>2048</dim>
					<dim>32</dim>
					<dim>64</dim>
				</port>
			</output>
		</layer>
		<layer id="325" name="Convert_419187" type="Convert" version="opset1">
			<data destination_type="f16" />
			<input>
				<port id="0" precision="U4">
					<dim>2048</dim>
					<dim>32</dim>
					<dim>64</dim>
				</port>
			</input>
			<output>
				<port id="1" precision="FP16">
					<dim>2048</dim>
					<dim>32</dim>
					<dim>64</dim>
				</port>
			</output>
		</layer>
		<layer id="326" name="self.model.layers.1.self_attn.q_proj.weight/zero_point" type="Const" version="opset1">
			<data element_type="u4" shape="2048, 32, 1" offset="91502805" size="32768" />
			<output>
				<port id="0" precision="U4">
					<dim>2048</dim>
					<dim>32</dim>
					<dim>1</dim>
				</port>
			</output>
		</layer>
		<layer id="327" name="Convert_419190" type="Convert" version="opset1">
			<data destination_type="f16" />
			<input>
				<port id="0" precision="U4">
					<dim>2048</dim>
					<dim>32</dim>
					<dim>1</dim>
				</port>
			</input>
			<output>
				<port id="1" precision="FP16">
					<dim>2048</dim>
					<dim>32</dim>
					<dim>1</dim>
				</port>
			</output>
		</layer>
		<layer id="328" name="self.model.layers.1.self_attn.q_proj.weight/zero_point/subtract" type="Subtract" version="opset1">
			<data auto_broadcast="numpy" />
			<input>
				<port id="0" precision="FP16">
					<dim>2048</dim>
					<dim>32</dim>
					<dim>64</dim>
				</port>
				<port id="1" precision="FP16">
					<dim>2048</dim>
					<dim>32</dim>
					<dim>1</dim>
				</port>
			</input>
			<output>
				<port id="2" precision="FP16">
					<dim>2048</dim>
					<dim>32</dim>
					<dim>64</dim>
				</port>
			</output>
		</layer>
		<layer id="329" name="self.model.layers.1.self_attn.q_proj.weight/scale" type="Const" version="opset1">
			<data element_type="f16" shape="2048, 32, 1" offset="91535573" size="131072" />
			<output>
				<port id="0" precision="FP16">
					<dim>2048</dim>
					<dim>32</dim>
					<dim>1</dim>
				</port>
			</output>
		</layer>
		<layer id="330" name="self.model.layers.1.self_attn.q_proj.weight/fq_weights_1" type="Multiply" version="opset1">
			<data auto_broadcast="numpy" />
			<input>
				<port id="0" precision="FP16">
					<dim>2048</dim>
					<dim>32</dim>
					<dim>64</dim>
				</port>
				<port id="1" precision="FP16">
					<dim>2048</dim>
					<dim>32</dim>
					<dim>1</dim>
				</port>
			</input>
			<output>
				<port id="2" precision="FP16">
					<dim>2048</dim>
					<dim>32</dim>
					<dim>64</dim>
				</port>
			</output>
		</layer>
		<layer id="331" name="Constant_419195" type="Const" version="opset1">
			<data element_type="i64" shape="2" offset="67909424" size="16" />
			<output>
				<port id="0" precision="I64">
					<dim>2</dim>
				</port>
			</output>
		</layer>
		<layer id="332" name="Reshape_419196" type="Reshape" version="opset1">
			<data special_zero="false" />
			<input>
				<port id="0" precision="FP16">
					<dim>2048</dim>
					<dim>32</dim>
					<dim>64</dim>
				</port>
				<port id="1" precision="I64">
					<dim>2</dim>
				</port>
			</input>
			<output>
				<port id="2" precision="FP16">
					<dim>2048</dim>
					<dim>2048</dim>
				</port>
			</output>
		</layer>
		<layer id="333" name="__module.model.layers.1.self_attn.q_proj/ov_ext::linear/Convert" type="Convert" version="opset1">
			<data destination_type="f32" />
			<rt_info>
				<attribute name="decompression" version="0" />
			</rt_info>
			<input>
				<port id="0" precision="FP16">
					<dim>2048</dim>
					<dim>2048</dim>
				</port>
			</input>
			<output>
				<port id="1" precision="FP32">
					<dim>2048</dim>
					<dim>2048</dim>
				</port>
			</output>
		</layer>
		<layer id="334" name="__module.model.layers.1.self_attn.q_proj/ov_ext::linear/MatMul" type="MatMul" version="opset1">
			<data transpose_a="false" transpose_b="true" />
			<input>
				<port id="0" precision="FP32">
					<dim>-1</dim>
					<dim>-1</dim>
					<dim>2048</dim>
				</port>
				<port id="1" precision="FP32">
					<dim>2048</dim>
					<dim>2048</dim>
				</port>
			</input>
			<output>
				<port id="2" precision="FP32" names="488">
					<dim>-1</dim>
					<dim>-1</dim>
					<dim>2048</dim>
				</port>
			</output>
		</layer>
		<layer id="335" name="Constant_64986" type="Const" version="opset1">
			<data element_type="i64" shape="4" offset="67909440" size="32" />
			<output>
				<port id="0" precision="I64">
					<dim>4</dim>
				</port>
			</output>
		</layer>
		<layer id="336" name="__module.model.layers.1.self_attn/aten::view/Reshape" type="Reshape" version="opset1">
			<data special_zero="true" />
			<input>
				<port id="0" precision="FP32">
					<dim>-1</dim>
					<dim>-1</dim>
					<dim>2048</dim>
				</port>
				<port id="1" precision="I64">
					<dim>4</dim>
				</port>
			</input>
			<output>
				<port id="2" precision="FP32" names="490">
					<dim>-1</dim>
					<dim>-1</dim>
					<dim>32</dim>
					<dim>64</dim>
				</port>
			</output>
		</layer>
		<layer id="337" name="__module.model.layers.1.self_attn/aten::transpose/Constant" type="Const" version="opset1">
			<data element_type="i32" shape="4" offset="67909472" size="16" />
			<output>
				<port id="0" precision="I32">
					<dim>4</dim>
				</port>
			</output>
		</layer>
		<layer id="338" name="__module.model.layers.1.self_attn/aten::transpose/Transpose" type="Transpose" version="opset1">
			<input>
				<port id="0" precision="FP32">
					<dim>-1</dim>
					<dim>-1</dim>
					<dim>32</dim>
					<dim>64</dim>
				</port>
				<port id="1" precision="I32">
					<dim>4</dim>
				</port>
			</input>
			<output>
				<port id="2" precision="FP32" names="491,q.3">
					<dim>-1</dim>
					<dim>32</dim>
					<dim>-1</dim>
					<dim>64</dim>
				</port>
			</output>
		</layer>
		<layer id="339" name="__module.model.layers.1.self_attn/aten::mul/Multiply" type="Multiply" version="opset1">
			<data auto_broadcast="numpy" />
			<input>
				<port id="0" precision="FP32">
					<dim>-1</dim>
					<dim>32</dim>
					<dim>-1</dim>
					<dim>64</dim>
				</port>
				<port id="1" precision="FP32">
					<dim>-1</dim>
					<dim>1</dim>
					<dim>-1</dim>
					<dim>64</dim>
				</port>
			</input>
			<output>
				<port id="2" precision="FP32" names="504">
					<dim>-1</dim>
					<dim>32</dim>
					<dim>-1</dim>
					<dim>64</dim>
				</port>
			</output>
		</layer>
		<layer id="340" name="Constant_1781" type="Const" version="opset1">
			<data element_type="i64" shape="1" offset="67909636" size="8" />
			<output>
				<port id="0" precision="I64">
					<dim>1</dim>
				</port>
			</output>
		</layer>
		<layer id="341" name="Constant_1783" type="Const" version="opset1">
			<data element_type="i64" shape="1" offset="67909644" size="8" />
			<output>
				<port id="0" precision="I64">
					<dim>1</dim>
				</port>
			</output>
		</layer>
		<layer id="342" name="Constant_1785" type="Const" version="opset1">
			<data element_type="i64" shape="1" offset="67909616" size="8" />
			<output>
				<port id="0" precision="I64">
					<dim>1</dim>
				</port>
			</output>
		</layer>
		<layer id="343" name="Constant_1737" type="Const" version="opset1">
			<data element_type="i64" shape="1" offset="67909652" size="8" />
			<output>
				<port id="0" precision="I64">
					<dim>1</dim>
				</port>
			</output>
		</layer>
		<layer id="344" name="__module.model.layers.1.self_attn/aten::slice/Slice" type="Slice" version="opset8">
			<input>
				<port id="0" precision="FP32">
					<dim>-1</dim>
					<dim>32</dim>
					<dim>-1</dim>
					<dim>64</dim>
				</port>
				<port id="1" precision="I64">
					<dim>1</dim>
				</port>
				<port id="2" precision="I64">
					<dim>1</dim>
				</port>
				<port id="3" precision="I64">
					<dim>1</dim>
				</port>
				<port id="4" precision="I64">
					<dim>1</dim>
				</port>
			</input>
			<output>
				<port id="5" precision="FP32" names="514,x2.5">
					<dim>-1</dim>
					<dim>32</dim>
					<dim>-1</dim>
					<dim>32</dim>
				</port>
			</output>
		</layer>
		<layer id="345" name="__module.model.layers.1.self_attn/aten::neg/Constant" type="Const" version="opset1">
			<data element_type="i32" shape="" offset="67909660" size="4" />
			<output>
				<port id="0" precision="I32" />
			</output>
		</layer>
		<layer id="346" name="__module.model.layers.1.self_attn/aten::neg/ConvertLike" type="Convert" version="opset1">
			<data destination_type="f32" />
			<input>
				<port id="0" precision="I32" />
			</input>
			<output>
				<port id="1" precision="FP32" />
			</output>
		</layer>
		<layer id="347" name="__module.model.layers.1.self_attn/aten::neg/Multiply" type="Multiply" version="opset1">
			<data auto_broadcast="numpy" />
			<input>
				<port id="0" precision="FP32">
					<dim>-1</dim>
					<dim>32</dim>
					<dim>-1</dim>
					<dim>32</dim>
				</port>
				<port id="1" precision="FP32" />
			</input>
			<output>
				<port id="2" precision="FP32" names="515">
					<dim>-1</dim>
					<dim>32</dim>
					<dim>-1</dim>
					<dim>32</dim>
				</port>
			</output>
		</layer>
		<layer id="348" name="Constant_1678" type="Const" version="opset1">
			<data element_type="i64" shape="1" offset="4" size="8" />
			<output>
				<port id="0" precision="I64">
					<dim>1</dim>
				</port>
			</output>
		</layer>
		<layer id="349" name="Constant_1722" type="Const" version="opset1">
			<data element_type="i64" shape="1" offset="67909636" size="8" />
			<output>
				<port id="0" precision="I64">
					<dim>1</dim>
				</port>
			</output>
		</layer>
		<layer id="350" name="Constant_1724" type="Const" version="opset1">
			<data element_type="i64" shape="1" offset="67909616" size="8" />
			<output>
				<port id="0" precision="I64">
					<dim>1</dim>
				</port>
			</output>
		</layer>
		<layer id="351" name="Constant_1676" type="Const" version="opset1">
			<data element_type="i64" shape="1" offset="67909652" size="8" />
			<output>
				<port id="0" precision="I64">
					<dim>1</dim>
				</port>
			</output>
		</layer>
		<layer id="352" name="__module.model.layers.1.self_attn/aten::slice/Slice_1" type="Slice" version="opset8">
			<input>
				<port id="0" precision="FP32">
					<dim>-1</dim>
					<dim>32</dim>
					<dim>-1</dim>
					<dim>64</dim>
				</port>
				<port id="1" precision="I64">
					<dim>1</dim>
				</port>
				<port id="2" precision="I64">
					<dim>1</dim>
				</port>
				<port id="3" precision="I64">
					<dim>1</dim>
				</port>
				<port id="4" precision="I64">
					<dim>1</dim>
				</port>
			</input>
			<output>
				<port id="5" precision="FP32" names="509,x1.5">
					<dim>-1</dim>
					<dim>32</dim>
					<dim>-1</dim>
					<dim>32</dim>
				</port>
			</output>
		</layer>
		<layer id="353" name="__module.model.layers.1.self_attn/aten::cat/Concat" type="Concat" version="opset1">
			<data axis="-1" />
			<input>
				<port id="0" precision="FP32">
					<dim>-1</dim>
					<dim>32</dim>
					<dim>-1</dim>
					<dim>32</dim>
				</port>
				<port id="1" precision="FP32">
					<dim>-1</dim>
					<dim>32</dim>
					<dim>-1</dim>
					<dim>32</dim>
				</port>
			</input>
			<output>
				<port id="2" precision="FP32" names="517">
					<dim>-1</dim>
					<dim>32</dim>
					<dim>-1</dim>
					<dim>64</dim>
				</port>
			</output>
		</layer>
		<layer id="354" name="__module.model.layers.1.self_attn/aten::mul/Multiply_1" type="Multiply" version="opset1">
			<data auto_broadcast="numpy" />
			<input>
				<port id="0" precision="FP32">
					<dim>-1</dim>
					<dim>32</dim>
					<dim>-1</dim>
					<dim>64</dim>
				</port>
				<port id="1" precision="FP32">
					<dim>-1</dim>
					<dim>1</dim>
					<dim>-1</dim>
					<dim>64</dim>
				</port>
			</input>
			<output>
				<port id="2" precision="FP32" names="518">
					<dim>-1</dim>
					<dim>32</dim>
					<dim>-1</dim>
					<dim>64</dim>
				</port>
			</output>
		</layer>
		<layer id="355" name="__module.model.layers.1.self_attn/aten::add/Add" type="Add" version="opset1">
			<data auto_broadcast="numpy" />
			<input>
				<port id="0" precision="FP32">
					<dim>-1</dim>
					<dim>32</dim>
					<dim>-1</dim>
					<dim>64</dim>
				</port>
				<port id="1" precision="FP32">
					<dim>-1</dim>
					<dim>32</dim>
					<dim>-1</dim>
					<dim>64</dim>
				</port>
			</input>
			<output>
				<port id="2" precision="FP32" names="519,query.3">
					<dim>-1</dim>
					<dim>32</dim>
					<dim>-1</dim>
					<dim>64</dim>
				</port>
			</output>
		</layer>
		<layer id="356" name="Constant_67550" type="Const" version="opset1">
			<data element_type="f32" shape="" offset="0" size="4" />
			<output>
				<port id="0" precision="FP32" />
			</output>
		</layer>
		<layer id="357" name="Constant_67543" type="Const" version="opset1">
			<data element_type="i64" shape="1" offset="12" size="8" />
			<output>
				<port id="0" precision="I64">
					<dim>1</dim>
				</port>
			</output>
		</layer>
		<layer id="358" name="Constant_67545" type="Const" version="opset1">
			<data element_type="i64" shape="1" offset="4" size="8" />
			<output>
				<port id="0" precision="I64">
					<dim>1</dim>
				</port>
			</output>
		</layer>
		<layer id="359" name="Constant_67547" type="Const" version="opset1">
			<data element_type="i64" shape="1" offset="20" size="8" />
			<output>
				<port id="0" precision="I64">
					<dim>1</dim>
				</port>
			</output>
		</layer>
		<layer id="360" name="Concat_67548" type="Concat" version="opset1">
			<data axis="0" />
			<input>
				<port id="0" precision="I64">
					<dim>1</dim>
				</port>
				<port id="1" precision="I64">
					<dim>1</dim>
				</port>
				<port id="2" precision="I64">
					<dim>1</dim>
				</port>
				<port id="3" precision="I64">
					<dim>1</dim>
				</port>
			</input>
			<output>
				<port id="4" precision="I64">
					<dim>4</dim>
				</port>
			</output>
		</layer>
		<layer id="361" name="Broadcast_67551" type="Broadcast" version="opset3">
			<data mode="numpy" />
			<input>
				<port id="0" precision="FP32" />
				<port id="1" precision="I64">
					<dim>4</dim>
				</port>
			</input>
			<output>
				<port id="2" precision="FP32">
					<dim>-1</dim>
					<dim>4</dim>
					<dim>0</dim>
					<dim>64</dim>
				</port>
			</output>
		</layer>
		<layer id="362" name="ReadValue_67018" type="ReadValue" version="opset6">
			<data variable_id="past_key_values.1.keypresent.1.key" variable_type="f32" variable_shape="?,4,?,64" />
			<input>
				<port id="0" precision="FP32">
					<dim>-1</dim>
					<dim>4</dim>
					<dim>0</dim>
					<dim>64</dim>
				</port>
			</input>
			<output>
				<port id="1" precision="FP32" names="past_key_values.1.key">
					<dim>-1</dim>
					<dim>4</dim>
					<dim>-1</dim>
					<dim>64</dim>
				</port>
			</output>
		</layer>
		<layer id="363" name="Constant_66503" type="Const" version="opset1">
			<data element_type="i64" shape="" offset="4" size="8" />
			<output>
				<port id="0" precision="I64" />
			</output>
		</layer>
		<layer id="364" name="Gather_66504" type="Gather" version="opset8">
			<data batch_dims="0" />
			<input>
				<port id="0" precision="FP32">
					<dim>-1</dim>
					<dim>4</dim>
					<dim>-1</dim>
					<dim>64</dim>
				</port>
				<port id="1" precision="I32">
					<dim>-1</dim>
				</port>
				<port id="2" precision="I64" />
			</input>
			<output>
				<port id="3" precision="FP32">
					<dim>-1</dim>
					<dim>4</dim>
					<dim>-1</dim>
					<dim>64</dim>
				</port>
			</output>
		</layer>
		<layer id="365" name="self.model.layers.1.self_attn.k_proj.weight" type="Const" version="opset1">
			<data element_type="u4" shape="256, 32, 64" offset="91666645" size="262144" />
			<output>
				<port id="0" precision="U4">
					<dim>256</dim>
					<dim>32</dim>
					<dim>64</dim>
				</port>
			</output>
		</layer>
		<layer id="366" name="Convert_634422" type="Convert" version="opset1">
			<data destination_type="f16" />
			<input>
				<port id="0" precision="U4">
					<dim>256</dim>
					<dim>32</dim>
					<dim>64</dim>
				</port>
			</input>
			<output>
				<port id="1" precision="FP16">
					<dim>256</dim>
					<dim>32</dim>
					<dim>64</dim>
				</port>
			</output>
		</layer>
		<layer id="367" name="self.model.layers.1.self_attn.k_proj.weight/zero_point" type="Const" version="opset1">
			<data element_type="u4" shape="256, 32, 1" offset="91928789" size="4096" />
			<output>
				<port id="0" precision="U4">
					<dim>256</dim>
					<dim>32</dim>
					<dim>1</dim>
				</port>
			</output>
		</layer>
		<layer id="368" name="Convert_634425" type="Convert" version="opset1">
			<data destination_type="f16" />
			<input>
				<port id="0" precision="U4">
					<dim>256</dim>
					<dim>32</dim>
					<dim>1</dim>
				</port>
			</input>
			<output>
				<port id="1" precision="FP16">
					<dim>256</dim>
					<dim>32</dim>
					<dim>1</dim>
				</port>
			</output>
		</layer>
		<layer id="369" name="self.model.layers.1.self_attn.k_proj.weight/zero_point/subtract" type="Subtract" version="opset1">
			<data auto_broadcast="numpy" />
			<input>
				<port id="0" precision="FP16">
					<dim>256</dim>
					<dim>32</dim>
					<dim>64</dim>
				</port>
				<port id="1" precision="FP16">
					<dim>256</dim>
					<dim>32</dim>
					<dim>1</dim>
				</port>
			</input>
			<output>
				<port id="2" precision="FP16">
					<dim>256</dim>
					<dim>32</dim>
					<dim>64</dim>
				</port>
			</output>
		</layer>
		<layer id="370" name="self.model.layers.1.self_attn.k_proj.weight/scale" type="Const" version="opset1">
			<data element_type="f16" shape="256, 32, 1" offset="91932885" size="16384" />
			<output>
				<port id="0" precision="FP16">
					<dim>256</dim>
					<dim>32</dim>
					<dim>1</dim>
				</port>
			</output>
		</layer>
		<layer id="371" name="self.model.layers.1.self_attn.k_proj.weight/fq_weights_1" type="Multiply" version="opset1">
			<data auto_broadcast="numpy" />
			<input>
				<port id="0" precision="FP16">
					<dim>256</dim>
					<dim>32</dim>
					<dim>64</dim>
				</port>
				<port id="1" precision="FP16">
					<dim>256</dim>
					<dim>32</dim>
					<dim>1</dim>
				</port>
			</input>
			<output>
				<port id="2" precision="FP16">
					<dim>256</dim>
					<dim>32</dim>
					<dim>64</dim>
				</port>
			</output>
		</layer>
		<layer id="372" name="Constant_634430" type="Const" version="opset1">
			<data element_type="i64" shape="2" offset="68192288" size="16" />
			<output>
				<port id="0" precision="I64">
					<dim>2</dim>
				</port>
			</output>
		</layer>
		<layer id="373" name="Reshape_634431" type="Reshape" version="opset1">
			<data special_zero="false" />
			<input>
				<port id="0" precision="FP16">
					<dim>256</dim>
					<dim>32</dim>
					<dim>64</dim>
				</port>
				<port id="1" precision="I64">
					<dim>2</dim>
				</port>
			</input>
			<output>
				<port id="2" precision="FP16">
					<dim>256</dim>
					<dim>2048</dim>
				</port>
			</output>
		</layer>
		<layer id="374" name="__module.model.layers.1.self_attn.k_proj/ov_ext::linear/Convert" type="Convert" version="opset1">
			<data destination_type="f32" />
			<rt_info>
				<attribute name="decompression" version="0" />
			</rt_info>
			<input>
				<port id="0" precision="FP16">
					<dim>256</dim>
					<dim>2048</dim>
				</port>
			</input>
			<output>
				<port id="1" precision="FP32">
					<dim>256</dim>
					<dim>2048</dim>
				</port>
			</output>
		</layer>
		<layer id="375" name="__module.model.layers.1.self_attn.k_proj/ov_ext::linear/MatMul" type="MatMul" version="opset1">
			<data transpose_a="false" transpose_b="true" />
			<input>
				<port id="0" precision="FP32">
					<dim>-1</dim>
					<dim>-1</dim>
					<dim>2048</dim>
				</port>
				<port id="1" precision="FP32">
					<dim>256</dim>
					<dim>2048</dim>
				</port>
			</input>
			<output>
				<port id="2" precision="FP32" names="493">
					<dim>-1</dim>
					<dim>-1</dim>
					<dim>256</dim>
				</port>
			</output>
		</layer>
		<layer id="376" name="Constant_64987" type="Const" version="opset1">
			<data element_type="i64" shape="4" offset="68192304" size="32" />
			<output>
				<port id="0" precision="I64">
					<dim>4</dim>
				</port>
			</output>
		</layer>
		<layer id="377" name="__module.model.layers.1.self_attn/aten::view/Reshape_1" type="Reshape" version="opset1">
			<data special_zero="true" />
			<input>
				<port id="0" precision="FP32">
					<dim>-1</dim>
					<dim>-1</dim>
					<dim>256</dim>
				</port>
				<port id="1" precision="I64">
					<dim>4</dim>
				</port>
			</input>
			<output>
				<port id="2" precision="FP32" names="495">
					<dim>-1</dim>
					<dim>-1</dim>
					<dim>4</dim>
					<dim>64</dim>
				</port>
			</output>
		</layer>
		<layer id="378" name="__module.model.layers.1.self_attn/aten::transpose/Constant_1" type="Const" version="opset1">
			<data element_type="i32" shape="4" offset="67909472" size="16" />
			<output>
				<port id="0" precision="I32">
					<dim>4</dim>
				</port>
			</output>
		</layer>
		<layer id="379" name="__module.model.layers.1.self_attn/aten::transpose/Transpose_1" type="Transpose" version="opset1">
			<input>
				<port id="0" precision="FP32">
					<dim>-1</dim>
					<dim>-1</dim>
					<dim>4</dim>
					<dim>64</dim>
				</port>
				<port id="1" precision="I32">
					<dim>4</dim>
				</port>
			</input>
			<output>
				<port id="2" precision="FP32" names="496,k.3">
					<dim>-1</dim>
					<dim>4</dim>
					<dim>-1</dim>
					<dim>64</dim>
				</port>
			</output>
		</layer>
		<layer id="380" name="__module.model.layers.1.self_attn/aten::mul/Multiply_2" type="Multiply" version="opset1">
			<data auto_broadcast="numpy" />
			<input>
				<port id="0" precision="FP32">
					<dim>-1</dim>
					<dim>4</dim>
					<dim>-1</dim>
					<dim>64</dim>
				</port>
				<port id="1" precision="FP32">
					<dim>-1</dim>
					<dim>1</dim>
					<dim>-1</dim>
					<dim>64</dim>
				</port>
			</input>
			<output>
				<port id="2" precision="FP32" names="520">
					<dim>-1</dim>
					<dim>4</dim>
					<dim>-1</dim>
					<dim>64</dim>
				</port>
			</output>
		</layer>
		<layer id="381" name="Constant_1924" type="Const" version="opset1">
			<data element_type="i64" shape="1" offset="67909636" size="8" />
			<output>
				<port id="0" precision="I64">
					<dim>1</dim>
				</port>
			</output>
		</layer>
		<layer id="382" name="Constant_1926" type="Const" version="opset1">
			<data element_type="i64" shape="1" offset="67909644" size="8" />
			<output>
				<port id="0" precision="I64">
					<dim>1</dim>
				</port>
			</output>
		</layer>
		<layer id="383" name="Constant_1928" type="Const" version="opset1">
			<data element_type="i64" shape="1" offset="67909616" size="8" />
			<output>
				<port id="0" precision="I64">
					<dim>1</dim>
				</port>
			</output>
		</layer>
		<layer id="384" name="Constant_1880" type="Const" version="opset1">
			<data element_type="i64" shape="1" offset="67909652" size="8" />
			<output>
				<port id="0" precision="I64">
					<dim>1</dim>
				</port>
			</output>
		</layer>
		<layer id="385" name="__module.model.layers.1.self_attn/aten::slice/Slice_2" type="Slice" version="opset8">
			<input>
				<port id="0" precision="FP32">
					<dim>-1</dim>
					<dim>4</dim>
					<dim>-1</dim>
					<dim>64</dim>
				</port>
				<port id="1" precision="I64">
					<dim>1</dim>
				</port>
				<port id="2" precision="I64">
					<dim>1</dim>
				</port>
				<port id="3" precision="I64">
					<dim>1</dim>
				</port>
				<port id="4" precision="I64">
					<dim>1</dim>
				</port>
			</input>
			<output>
				<port id="5" precision="FP32" names="530,x2.7">
					<dim>-1</dim>
					<dim>4</dim>
					<dim>-1</dim>
					<dim>32</dim>
				</port>
			</output>
		</layer>
		<layer id="386" name="__module.model.layers.1.self_attn/aten::neg/Constant_1" type="Const" version="opset1">
			<data element_type="i32" shape="" offset="67909660" size="4" />
			<output>
				<port id="0" precision="I32" />
			</output>
		</layer>
		<layer id="387" name="__module.model.layers.1.self_attn/aten::neg/ConvertLike_1" type="Convert" version="opset1">
			<data destination_type="f32" />
			<input>
				<port id="0" precision="I32" />
			</input>
			<output>
				<port id="1" precision="FP32" />
			</output>
		</layer>
		<layer id="388" name="__module.model.layers.1.self_attn/aten::neg/Multiply_1" type="Multiply" version="opset1">
			<data auto_broadcast="numpy" />
			<input>
				<port id="0" precision="FP32">
					<dim>-1</dim>
					<dim>4</dim>
					<dim>-1</dim>
					<dim>32</dim>
				</port>
				<port id="1" precision="FP32" />
			</input>
			<output>
				<port id="2" precision="FP32" names="531">
					<dim>-1</dim>
					<dim>4</dim>
					<dim>-1</dim>
					<dim>32</dim>
				</port>
			</output>
		</layer>
		<layer id="389" name="Constant_1821" type="Const" version="opset1">
			<data element_type="i64" shape="1" offset="4" size="8" />
			<output>
				<port id="0" precision="I64">
					<dim>1</dim>
				</port>
			</output>
…
		<edge from-layer="3565" from-port="2" to-layer="3567" to-port="0" />
		<edge from-layer="3566" from-port="0" to-layer="3567" to-port="1" />
		<edge from-layer="3567" from-port="2" to-layer="3568" to-port="1" />
		<edge from-layer="3568" from-port="2" to-layer="3569" to-port="0" />
		<edge from-layer="3568" from-port="2" to-layer="4083" to-port="0" />
		<edge from-layer="3569" from-port="2" to-layer="3570" to-port="0" />
		<edge from-layer="3570" from-port="2" to-layer="3572" to-port="0" />
		<edge from-layer="3571" from-port="0" to-layer="3572" to-port="1" />
		<edge from-layer="3572" from-port="2" to-layer="3573" to-port="2" />
		<edge from-layer="3573" from-port="5" to-layer="3575" to-port="0" />
		<edge from-layer="3574" from-port="0" to-layer="3575" to-port="1" />
		<edge from-layer="3575" from-port="2" to-layer="3577" to-port="0" />
		<edge from-layer="3576" from-port="0" to-layer="3577" to-port="1" />
		<edge from-layer="3577" from-port="2" to-layer="3588" to-port="0" />
		<edge from-layer="3578" from-port="0" to-layer="3579" to-port="0" />
		<edge from-layer="3579" from-port="1" to-layer="3582" to-port="0" />
		<edge from-layer="3580" from-port="0" to-layer="3581" to-port="0" />
		<edge from-layer="3581" from-port="1" to-layer="3582" to-port="1" />
		<edge from-layer="3582" from-port="2" to-layer="3584" to-port="0" />
		<edge from-layer="3583" from-port="0" to-layer="3584" to-port="1" />
		<edge from-layer="3584" from-port="2" to-layer="3586" to-port="0" />
		<edge from-layer="3585" from-port="0" to-layer="3586" to-port="1" />
		<edge from-layer="3586" from-port="2" to-layer="3587" to-port="0" />
		<edge from-layer="3587" from-port="1" to-layer="3588" to-port="1" />
		<edge from-layer="3588" from-port="2" to-layer="3589" to-port="1" />
		<edge from-layer="3589" from-port="2" to-layer="3637" to-port="0" />
		<edge from-layer="3589" from-port="2" to-layer="3593" to-port="0" />
		<edge from-layer="3589" from-port="2" to-layer="3600" to-port="0" />
		<edge from-layer="3590" from-port="0" to-layer="3601" to-port="0" />
		<edge from-layer="3591" from-port="0" to-layer="3599" to-port="0" />
		<edge from-layer="3592" from-port="0" to-layer="3593" to-port="1" />
		<edge from-layer="3593" from-port="2" to-layer="3595" to-port="0" />
		<edge from-layer="3594" from-port="0" to-layer="3595" to-port="1" />
		<edge from-layer="3595" from-port="2" to-layer="3597" to-port="0" />
		<edge from-layer="3596" from-port="0" to-layer="3597" to-port="1" />
		<edge from-layer="3597" from-port="2" to-layer="3598" to-port="0" />
		<edge from-layer="3598" from-port="1" to-layer="3599" to-port="1" />
		<edge from-layer="3599" from-port="2" to-layer="3600" to-port="1" />
		<edge from-layer="3600" from-port="2" to-layer="3601" to-port="1" />
		<edge from-layer="3601" from-port="2" to-layer="3612" to-port="0" />
		<edge from-layer="3601" from-port="2" to-layer="3624" to-port="0" />
		<edge from-layer="3602" from-port="0" to-layer="3603" to-port="0" />
		<edge from-layer="3603" from-port="1" to-layer="3606" to-port="0" />
		<edge from-layer="3604" from-port="0" to-layer="3605" to-port="0" />
		<edge from-layer="3605" from-port="1" to-layer="3606" to-port="1" />
		<edge from-layer="3606" from-port="2" to-layer="3608" to-port="0" />
		<edge from-layer="3607" from-port="0" to-layer="3608" to-port="1" />
		<edge from-layer="3608" from-port="2" to-layer="3610" to-port="0" />
		<edge from-layer="3609" from-port="0" to-layer="3610" to-port="1" />
		<edge from-layer="3610" from-port="2" to-layer="3611" to-port="0" />
		<edge from-layer="3611" from-port="1" to-layer="3612" to-port="1" />
		<edge from-layer="3612" from-port="2" to-layer="3613" to-port="0" />
		<edge from-layer="3613" from-port="1" to-layer="3625" to-port="0" />
		<edge from-layer="3614" from-port="0" to-layer="3615" to-port="0" />
		<edge from-layer="3615" from-port="1" to-layer="3618" to-port="0" />
		<edge from-layer="3616" from-port="0" to-layer="3617" to-port="0" />
		<edge from-layer="3617" from-port="1" to-layer="3618" to-port="1" />
		<edge from-layer="3618" from-port="2" to-layer="3620" to-port="0" />
		<edge from-layer="3619" from-port="0" to-layer="3620" to-port="1" />
		<edge from-layer="3620" from-port="2" to-layer="3622" to-port="0" />
		<edge from-layer="3621" from-port="0" to-layer="3622" to-port="1" />
		<edge from-layer="3622" from-port="2" to-layer="3623" to-port="0" />
		<edge from-layer="3623" from-port="1" to-layer="3624" to-port="1" />
		<edge from-layer="3624" from-port="2" to-layer="3625" to-port="1" />
		<edge from-layer="3625" from-port="2" to-layer="3636" to-port="0" />
		<edge from-layer="3626" from-port="0" to-layer="3627" to-port="0" />
		<edge from-layer="3627" from-port="1" to-layer="3630" to-port="0" />
		<edge from-layer="3628" from-port="0" to-layer="3629" to-port="0" />
		<edge from-layer="3629" from-port="1" to-layer="3630" to-port="1" />
		<edge from-layer="3630" from-port="2" to-layer="3632" to-port="0" />
		<edge from-layer="3631" from-port="0" to-layer="3632" to-port="1" />
		<edge from-layer="3632" from-port="2" to-layer="3634" to-port="0" />
		<edge from-layer="3633" from-port="0" to-layer="3634" to-port="1" />
		<edge from-layer="3634" from-port="2" to-layer="3635" to-port="0" />
		<edge from-layer="3635" from-port="1" to-layer="3636" to-port="1" />
		<edge from-layer="3636" from-port="2" to-layer="3637" to-port="1" />
		<edge from-layer="3637" from-port="2" to-layer="3648" to-port="0" />
		<edge from-layer="3637" from-port="2" to-layer="3773" to-port="0" />
		<edge from-layer="3637" from-port="2" to-layer="3641" to-port="0" />
		<edge from-layer="3638" from-port="0" to-layer="3649" to-port="0" />
		<edge from-layer="3639" from-port="0" to-layer="3647" to-port="0" />
		<edge from-layer="3640" from-port="0" to-layer="3641" to-port="1" />
		<edge from-layer="3641" from-port="2" to-layer="3643" to-port="0" />
		<edge from-layer="3642" from-port="0" to-layer="3643" to-port="1" />
		<edge from-layer="3643" from-port="2" to-layer="3645" to-port="0" />
		<edge from-layer="3644" from-port="0" to-layer="3645" to-port="1" />
		<edge from-layer="3645" from-port="2" to-layer="3646" to-port="0" />
		<edge from-layer="3646" from-port="1" to-layer="3647" to-port="1" />
		<edge from-layer="3647" from-port="2" to-layer="3648" to-port="1" />
		<edge from-layer="3648" from-port="2" to-layer="3649" to-port="1" />
		<edge from-layer="3649" from-port="2" to-layer="3747" to-port="0" />
		<edge from-layer="3649" from-port="2" to-layer="3701" to-port="0" />
		<edge from-layer="3649" from-port="2" to-layer="3660" to-port="0" />
		<edge from-layer="3650" from-port="0" to-layer="3651" to-port="0" />
		<edge from-layer="3651" from-port="1" to-layer="3654" to-port="0" />
		<edge from-layer="3652" from-port="0" to-layer="3653" to-port="0" />
		<edge from-layer="3653" from-port="1" to-layer="3654" to-port="1" />
		<edge from-layer="3654" from-port="2" to-layer="3656" to-port="0" />
		<edge from-layer="3655" from-port="0" to-layer="3656" to-port="1" />
		<edge from-layer="3656" from-port="2" to-layer="3658" to-port="0" />
		<edge from-layer="3657" from-port="0" to-layer="3658" to-port="1" />
		<edge from-layer="3658" from-port="2" to-layer="3659" to-port="0" />
		<edge from-layer="3659" from-port="1" to-layer="3660" to-port="1" />
		<edge from-layer="3660" from-port="2" to-layer="3662" to-port="0" />
		<edge from-layer="3661" from-port="0" to-layer="3662" to-port="1" />
		<edge from-layer="3662" from-port="2" to-layer="3664" to-port="0" />
		<edge from-layer="3663" from-port="0" to-layer="3664" to-port="1" />
		<edge from-layer="3664" from-port="2" to-layer="3665" to-port="0" />
		<edge from-layer="3664" from-port="2" to-layer="3670" to-port="0" />
		<edge from-layer="3664" from-port="2" to-layer="3678" to-port="0" />
		<edge from-layer="3665" from-port="2" to-layer="3681" to-port="0" />
		<edge from-layer="3666" from-port="0" to-layer="3670" to-port="1" />
		<edge from-layer="3667" from-port="0" to-layer="3670" to-port="2" />
		<edge from-layer="3668" from-port="0" to-layer="3670" to-port="3" />
		<edge from-layer="3669" from-port="0" to-layer="3670" to-port="4" />
		<edge from-layer="3670" from-port="5" to-layer="3673" to-port="0" />
		<edge from-layer="3671" from-port="0" to-layer="3672" to-port="0" />
		<edge from-layer="3672" from-port="1" to-layer="3673" to-port="1" />
		<edge from-layer="3673" from-port="2" to-layer="3679" to-port="0" />
		<edge from-layer="3674" from-port="0" to-layer="3678" to-port="1" />
		<edge from-layer="3675" from-port="0" to-layer="3678" to-port="2" />
		<edge from-layer="3676" from-port="0" to-layer="3678" to-port="3" />
		<edge from-layer="3677" from-port="0" to-layer="3678" to-port="4" />
		<edge from-layer="3678" from-port="5" to-layer="3679" to-port="1" />
		<edge from-layer="3679" from-port="2" to-layer="3680" to-port="0" />
		<edge from-layer="3680" from-port="2" to-layer="3681" to-port="1" />
		<edge from-layer="3681" from-port="2" to-layer="3757" to-port="0" />
		<edge from-layer="3682" from-port="0" to-layer="3687" to-port="0" />
		<edge from-layer="3683" from-port="0" to-layer="3686" to-port="1" />
		<edge from-layer="3684" from-port="0" to-layer="3686" to-port="2" />
		<edge from-layer="3685" from-port="0" to-layer="3686" to-port="3" />
		<edge from-layer="3686" from-port="4" to-layer="3687" to-port="1" />
		<edge from-layer="3687" from-port="2" to-layer="3688" to-port="0" />
		<edge from-layer="3688" from-port="1" to-layer="3690" to-port="0" />
		<edge from-layer="3689" from-port="0" to-layer="3690" to-port="2" />
		<edge from-layer="3690" from-port="3" to-layer="3723" to-port="0" />
		<edge from-layer="3691" from-port="0" to-layer="3692" to-port="0" />
		<edge from-layer="3692" from-port="1" to-layer="3695" to-port="0" />
		<edge from-layer="3693" from-port="0" to-layer="3694" to-port="0" />
		<edge from-layer="3694" from-port="1" to-layer="3695" to-port="1" />
		<edge from-layer="3695" from-port="2" to-layer="3697" to-port="0" />
		<edge from-layer="3696" from-port="0" to-layer="3697" to-port="1" />
		<edge from-layer="3697" from-port="2" to-layer="3699" to-port="0" />
		<edge from-layer="3698" from-port="0" to-layer="3699" to-port="1" />
		<edge from-layer="3699" from-port="2" to-layer="3700" to-port="0" />
		<edge from-layer="3700" from-port="1" to-layer="3701" to-port="1" />
		<edge from-layer="3701" from-port="2" to-layer="3703" to-port="0" />
		<edge from-layer="3702" from-port="0" to-layer="3703" to-port="1" />
		<edge from-layer="3703" from-port="2" to-layer="3705" to-port="0" />
		<edge from-layer="3704" from-port="0" to-layer="3705" to-port="1" />
		<edge from-layer="3705" from-port="2" to-layer="3706" to-port="0" />
		<edge from-layer="3705" from-port="2" to-layer="3711" to-port="0" />
		<edge from-layer="3705" from-port="2" to-layer="3719" to-port="0" />
		<edge from-layer="3706" from-port="2" to-layer="3722" to-port="0" />
		<edge from-layer="3707" from-port="0" to-layer="3711" to-port="1" />
		<edge from-layer="3708" from-port="0" to-layer="3711" to-port="2" />
		<edge from-layer="3709" from-port="0" to-layer="3711" to-port="3" />
		<edge from-layer="3710" from-port="0" to-layer="3711" to-port="4" />
		<edge from-layer="3711" from-port="5" to-layer="3714" to-port="0" />
		<edge from-layer="3712" from-port="0" to-layer="3713" to-port="0" />
		<edge from-layer="3713" from-port="1" to-layer="3714" to-port="1" />
		<edge from-layer="3714" from-port="2" to-layer="3720" to-port="0" />
		<edge from-layer="3715" from-port="0" to-layer="3719" to-port="1" />
		<edge from-layer="3716" from-port="0" to-layer="3719" to-port="2" />
		<edge from-layer="3717" from-port="0" to-layer="3719" to-port="3" />
		<edge from-layer="3718" from-port="0" to-layer="3719" to-port="4" />
		<edge from-layer="3719" from-port="5" to-layer="3720" to-port="1" />
		<edge from-layer="3720" from-port="2" to-layer="3721" to-port="0" />
		<edge from-layer="3721" from-port="2" to-layer="3722" to-port="1" />
		<edge from-layer="3722" from-port="2" to-layer="3723" to-port="1" />
		<edge from-layer="3723" from-port="2" to-layer="4082" to-port="0" />
		<edge from-layer="3723" from-port="2" to-layer="3724" to-port="0" />
		<edge from-layer="3724" from-port="2" to-layer="3725" to-port="0" />
		<edge from-layer="3725" from-port="2" to-layer="3727" to-port="0" />
		<edge from-layer="3726" from-port="0" to-layer="3727" to-port="1" />
		<edge from-layer="3727" from-port="2" to-layer="3757" to-port="1" />
		<edge from-layer="3728" from-port="0" to-layer="3733" to-port="0" />
		<edge from-layer="3729" from-port="0" to-layer="3732" to-port="1" />
		<edge from-layer="3730" from-port="0" to-layer="3732" to-port="2" />
		<edge from-layer="3731" from-port="0" to-layer="3732" to-port="3" />
		<edge from-layer="3732" from-port="4" to-layer="3733" to-port="1" />
		<edge from-layer="3733" from-port="2" to-layer="3734" to-port="0" />
		<edge from-layer="3734" from-port="1" to-layer="3736" to-port="0" />
		<edge from-layer="3735" from-port="0" to-layer="3736" to-port="2" />
		<edge from-layer="3736" from-port="3" to-layer="3752" to-port="0" />
		<edge from-layer="3737" from-port="0" to-layer="3738" to-port="0" />
		<edge from-layer="3738" from-port="1" to-layer="3741" to-port="0" />
		<edge from-layer="3739" from-port="0" to-layer="3740" to-port="0" />
		<edge from-layer="3740" from-port="1" to-layer="3741" to-port="1" />
		<edge from-layer="3741" from-port="2" to-layer="3743" to-port="0" />
		<edge from-layer="3742" from-port="0" to-layer="3743" to-port="1" />
		<edge from-layer="3743" from-port="2" to-layer="3745" to-port="0" />
		<edge from-layer="3744" from-port="0" to-layer="3745" to-port="1" />
		<edge from-layer="3745" from-port="2" to-layer="3746" to-port="0" />
		<edge from-layer="3746" from-port="1" to-layer="3747" to-port="1" />
		<edge from-layer="3747" from-port="2" to-layer="3749" to-port="0" />
		<edge from-layer="3748" from-port="0" to-layer="3749" to-port="1" />
		<edge from-layer="3749" from-port="2" to-layer="3751" to-port="0" />
		<edge from-layer="3750" from-port="0" to-layer="3751" to-port="1" />
		<edge from-layer="3751" from-port="2" to-layer="3752" to-port="1" />
		<edge from-layer="3752" from-port="2" to-layer="4081" to-port="0" />
		<edge from-layer="3752" from-port="2" to-layer="3753" to-port="0" />
		<edge from-layer="3753" from-port="2" to-layer="3754" to-port="0" />
		<edge from-layer="3754" from-port="2" to-layer="3756" to-port="0" />
		<edge from-layer="3755" from-port="0" to-layer="3756" to-port="1" />
		<edge from-layer="3756" from-port="2" to-layer="3757" to-port="2" />
		<edge from-layer="3757" from-port="5" to-layer="3759" to-port="0" />
		<edge from-layer="3758" from-port="0" to-layer="3759" to-port="1" />
		<edge from-layer="3759" from-port="2" to-layer="3761" to-port="0" />
		<edge from-layer="3760" from-port="0" to-layer="3761" to-port="1" />
		<edge from-layer="3761" from-port="2" to-layer="3772" to-port="0" />
		<edge from-layer="3762" from-port="0" to-layer="3763" to-port="0" />
		<edge from-layer="3763" from-port="1" to-layer="3766" to-port="0" />
		<edge from-layer="3764" from-port="0" to-layer="3765" to-port="0" />
		<edge from-layer="3765" from-port="1" to-layer="3766" to-port="1" />
		<edge from-layer="3766" from-port="2" to-layer="3768" to-port="0" />
		<edge from-layer="3767" from-port="0" to-layer="3768" to-port="1" />
		<edge from-layer="3768" from-port="2" to-layer="3770" to-port="0" />
		<edge from-layer="3769" from-port="0" to-layer="3770" to-port="1" />
		<edge from-layer="3770" from-port="2" to-layer="3771" to-port="0" />
		<edge from-layer="3771" from-port="1" to-layer="3772" to-port="1" />
		<edge from-layer="3772" from-port="2" to-layer="3773" to-port="1" />
		<edge from-layer="3773" from-port="2" to-layer="3784" to-port="0" />
		<edge from-layer="3773" from-port="2" to-layer="3777" to-port="0" />
		<edge from-layer="3773" from-port="2" to-layer="3821" to-port="0" />
		<edge from-layer="3774" from-port="0" to-layer="3785" to-port="0" />
		<edge from-layer="3775" from-port="0" to-layer="3783" to-port="0" />
		<edge from-layer="3776" from-port="0" to-layer="3777" to-port="1" />
		<edge from-layer="3777" from-port="2" to-layer="3779" to-port="0" />
		<edge from-layer="3778" from-port="0" to-layer="3779" to-port="1" />
		<edge from-layer="3779" from-port="2" to-layer="3781" to-port="0" />
		<edge from-layer="3780" from-port="0" to-layer="3781" to-port="1" />
		<edge from-layer="3781" from-port="2" to-layer="3782" to-port="0" />
		<edge from-layer="3782" from-port="1" to-layer="3783" to-port="1" />
		<edge from-layer="3783" from-port="2" to-layer="3784" to-port="1" />
		<edge from-layer="3784" from-port="2" to-layer="3785" to-port="1" />
		<edge from-layer="3785" from-port="2" to-layer="3808" to-port="0" />
		<edge from-layer="3785" from-port="2" to-layer="3796" to-port="0" />
		<edge from-layer="3786" from-port="0" to-layer="3787" to-port="0" />
		<edge from-layer="3787" from-port="1" to-layer="3790" to-port="0" />
		<edge from-layer="3788" from-port="0" to-layer="3789" to-port="0" />
		<edge from-layer="3789" from-port="1" to-layer="3790" to-port="1" />
		<edge from-layer="3790" from-port="2" to-layer="3792" to-port="0" />
		<edge from-layer="3791" from-port="0" to-layer="3792" to-port="1" />
		<edge from-layer="3792" from-port="2" to-layer="3794" to-port="0" />
		<edge from-layer="3793" from-port="0" to-layer="3794" to-port="1" />
		<edge from-layer="3794" from-port="2" to-layer="3795" to-port="0" />
		<edge from-layer="3795" from-port="1" to-layer="3796" to-port="1" />
		<edge from-layer="3796" from-port="2" to-layer="3797" to-port="0" />
		<edge from-layer="3797" from-port="1" to-layer="3809" to-port="0" />
		<edge from-layer="3798" from-port="0" to-layer="3799" to-port="0" />
		<edge from-layer="3799" from-port="1" to-layer="3802" to-port="0" />
		<edge from-layer="3800" from-port="0" to-layer="3801" to-port="0" />
		<edge from-layer="3801" from-port="1" to-layer="3802" to-port="1" />
		<edge from-layer="3802" from-port="2" to-layer="3804" to-port="0" />
		<edge from-layer="3803" from-port="0" to-layer="3804" to-port="1" />
		<edge from-layer="3804" from-port="2" to-layer="3806" to-port="0" />
		<edge from-layer="3805" from-port="0" to-layer="3806" to-port="1" />
		<edge from-layer="3806" from-port="2" to-layer="3807" to-port="0" />
		<edge from-layer="3807" from-port="1" to-layer="3808" to-port="1" />
		<edge from-layer="3808" from-port="2" to-layer="3809" to-port="1" />
		<edge from-layer="3809" from-port="2" to-layer="3820" to-port="0" />
		<edge from-layer="3810" from-port="0" to-layer="3811" to-port="0" />
		<edge from-layer="3811" from-port="1" to-layer="3814" to-port="0" />
		<edge from-layer="3812" from-port="0" to-layer="3813" to-port="0" />
		<edge from-layer="3813" from-port="1" to-layer="3814" to-port="1" />
		<edge from-layer="3814" from-port="2" to-layer="3816" to-port="0" />
		<edge from-layer="3815" from-port="0" to-layer="3816" to-port="1" />
		<edge from-layer="3816" from-port="2" to-layer="3818" to-port="0" />
		<edge from-layer="3817" from-port="0" to-layer="3818" to-port="1" />
		<edge from-layer="3818" from-port="2" to-layer="3819" to-port="0" />
		<edge from-layer="3819" from-port="1" to-layer="3820" to-port="1" />
		<edge from-layer="3820" from-port="2" to-layer="3821" to-port="1" />
		<edge from-layer="3821" from-port="2" to-layer="3825" to-port="0" />
		<edge from-layer="3821" from-port="2" to-layer="3832" to-port="0" />
		<edge from-layer="3821" from-port="2" to-layer="3957" to-port="0" />
		<edge from-layer="3822" from-port="0" to-layer="3833" to-port="0" />
		<edge from-layer="3823" from-port="0" to-layer="3831" to-port="0" />
		<edge from-layer="3824" from-port="0" to-layer="3825" to-port="1" />
		<edge from-layer="3825" from-port="2" to-layer="3827" to-port="0" />
		<edge from-layer="3826" from-port="0" to-layer="3827" to-port="1" />
		<edge from-layer="3827" from-port="2" to-layer="3829" to-port="0" />
		<edge from-layer="3828" from-port="0" to-layer="3829" to-port="1" />
		<edge from-layer="3829" from-port="2" to-layer="3830" to-port="0" />
		<edge from-layer="3830" from-port="1" to-layer="3831" to-port="1" />
		<edge from-layer="3831" from-port="2" to-layer="3832" to-port="1" />
		<edge from-layer="3832" from-port="2" to-layer="3833" to-port="1" />
		<edge from-layer="3833" from-port="2" to-layer="3844" to-port="0" />
		<edge from-layer="3833" from-port="2" to-layer="3931" to-port="0" />
		<edge from-layer="3833" from-port="2" to-layer="3885" to-port="0" />
		<edge from-layer="3834" from-port="0" to-layer="3835" to-port="0" />
		<edge from-layer="3835" from-port="1" to-layer="3838" to-port="0" />
		<edge from-layer="3836" from-port="0" to-layer="3837" to-port="0" />
		<edge from-layer="3837" from-port="1" to-layer="3838" to-port="1" />
		<edge from-layer="3838" from-port="2" to-layer="3840" to-port="0" />
		<edge from-layer="3839" from-port="0" to-layer="3840" to-port="1" />
		<edge from-layer="3840" from-port="2" to-layer="3842" to-port="0" />
		<edge from-layer="3841" from-port="0" to-layer="3842" to-port="1" />
		<edge from-layer="3842" from-port="2" to-layer="3843" to-port="0" />
		<edge from-layer="3843" from-port="1" to-layer="3844" to-port="1" />
		<edge from-layer="3844" from-port="2" to-layer="3846" to-port="0" />
		<edge from-layer="3845" from-port="0" to-layer="3846" to-port="1" />
		<edge from-layer="3846" from-port="2" to-layer="3848" to-port="0" />
		<edge from-layer="3847" from-port="0" to-layer="3848" to-port="1" />
		<edge from-layer="3848" from-port="2" to-layer="3849" to-port="0" />
		<edge from-layer="3848" from-port="2" to-layer="3854" to-port="0" />
		<edge from-layer="3848" from-port="2" to-layer="3862" to-port="0" />
		<edge from-layer="3849" from-port="2" to-layer="3865" to-port="0" />
		<edge from-layer="3850" from-port="0" to-layer="3854" to-port="1" />
		<edge from-layer="3851" from-port="0" to-layer="3854" to-port="2" />
		<edge from-layer="3852" from-port="0" to-layer="3854" to-port="3" />
		<edge from-layer="3853" from-port="0" to-layer="3854" to-port="4" />
		<edge from-layer="3854" from-port="5" to-layer="3857" to-port="0" />
		<edge from-layer="3855" from-port="0" to-layer="3856" to-port="0" />
		<edge from-layer="3856" from-port="1" to-layer="3857" to-port="1" />
		<edge from-layer="3857" from-port="2" to-layer="3863" to-port="0" />
		<edge from-layer="3858" from-port="0" to-layer="3862" to-port="1" />
		<edge from-layer="3859" from-port="0" to-layer="3862" to-port="2" />
		<edge from-layer="3860" from-port="0" to-layer="3862" to-port="3" />
		<edge from-layer="3861" from-port="0" to-layer="3862" to-port="4" />
		<edge from-layer="3862" from-port="5" to-layer="3863" to-port="1" />
		<edge from-layer="3863" from-port="2" to-layer="3864" to-port="0" />
		<edge from-layer="3864" from-port="2" to-layer="3865" to-port="1" />
		<edge from-layer="3865" from-port="2" to-layer="3941" to-port="0" />
		<edge from-layer="3866" from-port="0" to-layer="3871" to-port="0" />
		<edge from-layer="3867" from-port="0" to-layer="3870" to-port="1" />
		<edge from-layer="3868" from-port="0" to-layer="3870" to-port="2" />
		<edge from-layer="3869" from-port="0" to-layer="3870" to-port="3" />
		<edge from-layer="3870" from-port="4" to-layer="3871" to-port="1" />
		<edge from-layer="3871" from-port="2" to-layer="3872" to-port="0" />
		<edge from-layer="3872" from-port="1" to-layer="3874" to-port="0" />
		<edge from-layer="3873" from-port="0" to-layer="3874" to-port="2" />
		<edge from-layer="3874" from-port="3" to-layer="3907" to-port="0" />
		<edge from-layer="3875" from-port="0" to-layer="3876" to-port="0" />
		<edge from-layer="3876" from-port="1" to-layer="3879" to-port="0" />
		<edge from-layer="3877" from-port="0" to-layer="3878" to-port="0" />
		<edge from-layer="3878" from-port="1" to-layer="3879" to-port="1" />
		<edge from-layer="3879" from-port="2" to-layer="3881" to-port="0" />
		<edge from-layer="3880" from-port="0" to-layer="3881" to-port="1" />
		<edge from-layer="3881" from-port="2" to-layer="3883" to-port="0" />
		<edge from-layer="3882" from-port="0" to-layer="3883" to-port="1" />
		<edge from-layer="3883" from-port="2" to-layer="3884" to-port="0" />
		<edge from-layer="3884" from-port="1" to-layer="3885" to-port="1" />
		<edge from-layer="3885" from-port="2" to-layer="3887" to-port="0" />
		<edge from-layer="3886" from-port="0" to-layer="3887" to-port="1" />
		<edge from-layer="3887" from-port="2" to-layer="3889" to-port="0" />
		<edge from-layer="3888" from-port="0" to-layer="3889" to-port="1" />
		<edge from-layer="3889" from-port="2" to-layer="3895" to-port="0" />
		<edge from-layer="3889" from-port="2" to-layer="3903" to-port="0" />
		<edge from-layer="3889" from-port="2" to-layer="3890" to-port="0" />
		<edge from-layer="3890" from-port="2" to-layer="3906" to-port="0" />
		<edge from-layer="3891" from-port="0" to-layer="3895" to-port="1" />
		<edge from-layer="3892" from-port="0" to-layer="3895" to-port="2" />
		<edge from-layer="3893" from-port="0" to-layer="3895" to-port="3" />
		<edge from-layer="3894" from-port="0" to-layer="3895" to-port="4" />
		<edge from-layer="3895" from-port="5" to-layer="3898" to-port="0" />
		<edge from-layer="3896" from-port="0" to-layer="3897" to-port="0" />
		<edge from-layer="3897" from-port="1" to-layer="3898" to-port="1" />
		<edge from-layer="3898" from-port="2" to-layer="3904" to-port="0" />
		<edge from-layer="3899" from-port="0" to-layer="3903" to-port="1" />
		<edge from-layer="3900" from-port="0" to-layer="3903" to-port="2" />
		<edge from-layer="3901" from-port="0" to-layer="3903" to-port="3" />
		<edge from-layer="3902" from-port="0" to-layer="3903" to-port="4" />
		<edge from-layer="3903" from-port="5" to-layer="3904" to-port="1" />
		<edge from-layer="3904" from-port="2" to-layer="3905" to-port="0" />
		<edge from-layer="3905" from-port="2" to-layer="3906" to-port="1" />
		<edge from-layer="3906" from-port="2" to-layer="3907" to-port="1" />
		<edge from-layer="3907" from-port="2" to-layer="3908" to-port="0" />
		<edge from-layer="3907" from-port="2" to-layer="4078" to-port="0" />
		<edge from-layer="3908" from-port="2" to-layer="3909" to-port="0" />
		<edge from-layer="3909" from-port="2" to-layer="3911" to-port="0" />
		<edge from-layer="3910" from-port="0" to-layer="3911" to-port="1" />
		<edge from-layer="3911" from-port="2" to-layer="3941" to-port="1" />
		<edge from-layer="3912" from-port="0" to-layer="3917" to-port="0" />
		<edge from-layer="3913" from-port="0" to-layer="3916" to-port="1" />
		<edge from-layer="3914" from-port="0" to-layer="3916" to-port="2" />
		<edge from-layer="3915" from-port="0" to-layer="3916" to-port="3" />
		<edge from-layer="3916" from-port="4" to-layer="3917" to-port="1" />
		<edge from-layer="3917" from-port="2" to-layer="3918" to-port="0" />
		<edge from-layer="3918" from-port="1" to-layer="3920" to-port="0" />
		<edge from-layer="3919" from-port="0" to-layer="3920" to-port="2" />
		<edge from-layer="3920" from-port="3" to-layer="3936" to-port="0" />
		<edge from-layer="3921" from-port="0" to-layer="3922" to-port="0" />
		<edge from-layer="3922" from-port="1" to-layer="3925" to-port="0" />
		<edge from-layer="3923" from-port="0" to-layer="3924" to-port="0" />
		<edge from-layer="3924" from-port="1" to-layer="3925" to-port="1" />
		<edge from-layer="3925" from-port="2" to-layer="3927" to-port="0" />
		<edge from-layer="3926" from-port="0" to-layer="3927" to-port="1" />
		<edge from-layer="3927" from-port="2" to-layer="3929" to-port="0" />
		<edge from-layer="3928" from-port="0" to-layer="3929" to-port="1" />
		<edge from-layer="3929" from-port="2" to-layer="3930" to-port="0" />
		<edge from-layer="3930" from-port="1" to-layer="3931" to-port="1" />
		<edge from-layer="3931" from-port="2" to-layer="3933" to-port="0" />
		<edge from-layer="3932" from-port="0" to-layer="3933" to-port="1" />
		<edge from-layer="3933" from-port="2" to-layer="3935" to-port="0" />
		<edge from-layer="3934" from-port="0" to-layer="3935" to-port="1" />
		<edge from-layer="3935" from-port="2" to-layer="3936" to-port="1" />
		<edge from-layer="3936" from-port="2" to-layer="4077" to-port="0" />
		<edge from-layer="3936" from-port="2" to-layer="3937" to-port="0" />
		<edge from-layer="3937" from-port="2" to-layer="3938" to-port="0" />
		<edge from-layer="3938" from-port="2" to-layer="3940" to-port="0" />
		<edge from-layer="3939" from-port="0" to-layer="3940" to-port="1" />
		<edge from-layer="3940" from-port="2" to-layer="3941" to-port="2" />
		<edge from-layer="3941" from-port="5" to-layer="3943" to-port="0" />
		<edge from-layer="3942" from-port="0" to-layer="3943" to-port="1" />
		<edge from-layer="3943" from-port="2" to-layer="3945" to-port="0" />
		<edge from-layer="3944" from-port="0" to-layer="3945" to-port="1" />
		<edge from-layer="3945" from-port="2" to-layer="3956" to-port="0" />
		<edge from-layer="3946" from-port="0" to-layer="3947" to-port="0" />
		<edge from-layer="3947" from-port="1" to-layer="3950" to-port="0" />
		<edge from-layer="3948" from-port="0" to-layer="3949" to-port="0" />
		<edge from-layer="3949" from-port="1" to-layer="3950" to-port="1" />
		<edge from-layer="3950" from-port="2" to-layer="3952" to-port="0" />
		<edge from-layer="3951" from-port="0" to-layer="3952" to-port="1" />
		<edge from-layer="3952" from-port="2" to-layer="3954" to-port="0" />
		<edge from-layer="3953" from-port="0" to-layer="3954" to-port="1" />
		<edge from-layer="3954" from-port="2" to-layer="3955" to-port="0" />
		<edge from-layer="3955" from-port="1" to-layer="3956" to-port="1" />
		<edge from-layer="3956" from-port="2" to-layer="3957" to-port="1" />
		<edge from-layer="3957" from-port="2" to-layer="3961" to-port="0" />
		<edge from-layer="3957" from-port="2" to-layer="4005" to-port="0" />
		<edge from-layer="3957" from-port="2" to-layer="3968" to-port="0" />
		<edge from-layer="3958" from-port="0" to-layer="3969" to-port="0" />
		<edge from-layer="3959" from-port="0" to-layer="3967" to-port="0" />
		<edge from-layer="3960" from-port="0" to-layer="3961" to-port="1" />
		<edge from-layer="3961" from-port="2" to-layer="3963" to-port="0" />
		<edge from-layer="3962" from-port="0" to-layer="3963" to-port="1" />
		<edge from-layer="3963" from-port="2" to-layer="3965" to-port="0" />
		<edge from-layer="3964" from-port="0" to-layer="3965" to-port="1" />
		<edge from-layer="3965" from-port="2" to-layer="3966" to-port="0" />
		<edge from-layer="3966" from-port="1" to-layer="3967" to-port="1" />
		<edge from-layer="3967" from-port="2" to-layer="3968" to-port="1" />
		<edge from-layer="3968" from-port="2" to-layer="3969" to-port="1" />
		<edge from-layer="3969" from-port="2" to-layer="3980" to-port="0" />
		<edge from-layer="3969" from-port="2" to-layer="3992" to-port="0" />
		<edge from-layer="3970" from-port="0" to-layer="3971" to-port="0" />
		<edge from-layer="3971" from-port="1" to-layer="3974" to-port="0" />
		<edge from-layer="3972" from-port="0" to-layer="3973" to-port="0" />
		<edge from-layer="3973" from-port="1" to-layer="3974" to-port="1" />
		<edge from-layer="3974" from-port="2" to-layer="3976" to-port="0" />
		<edge from-layer="3975" from-port="0" to-layer="3976" to-port="1" />
		<edge from-layer="3976" from-port="2" to-layer="3978" to-port="0" />
		<edge from-layer="3977" from-port="0" to-layer="3978" to-port="1" />
		<edge from-layer="3978" from-port="2" to-layer="3979" to-port="0" />
		<edge from-layer="3979" from-port="1" to-layer="3980" to-port="1" />
		<edge from-layer="3980" from-port="2" to-layer="3981" to-port="0" />
		<edge from-layer="3981" from-port="1" to-layer="3993" to-port="0" />
		<edge from-layer="3982" from-port="0" to-layer="3983" to-port="0" />
		<edge from-layer="3983" from-port="1" to-layer="3986" to-port="0" />
		<edge from-layer="3984" from-port="0" to-layer="3985" to-port="0" />
		<edge from-layer="3985" from-port="1" to-layer="3986" to-port="1" />
		<edge from-layer="3986" from-port="2" to-layer="3988" to-port="0" />
		<edge from-layer="3987" from-port="0" to-layer="3988" to-port="1" />
		<edge from-layer="3988" from-port="2" to-layer="3990" to-port="0" />
		<edge from-layer="3989" from-port="0" to-layer="3990" to-port="1" />
		<edge from-layer="3990" from-port="2" to-layer="3991" to-port="0" />
		<edge from-layer="3991" from-port="1" to-layer="3992" to-port="1" />
		<edge from-layer="3992" from-port="2" to-layer="3993" to-port="1" />
		<edge from-layer="3993" from-port="2" to-layer="4004" to-port="0" />
		<edge from-layer="3994" from-port="0" to-layer="3995" to-port="0" />
		<edge from-layer="3995" from-port="1" to-layer="3998" to-port="0" />
		<edge from-layer="3996" from-port="0" to-layer="3997" to-port="0" />
		<edge from-layer="3997" from-port="1" to-layer="3998" to-port="1" />
		<edge from-layer="3998" from-port="2" to-layer="4000" to-port="0" />
		<edge from-layer="3999" from-port="0" to-layer="4000" to-port="1" />
		<edge from-layer="4000" from-port="2" to-layer="4002" to-port="0" />
		<edge from-layer="4001" from-port="0" to-layer="4002" to-port="1" />
		<edge from-layer="4002" from-port="2" to-layer="4003" to-port="0" />
		<edge from-layer="4003" from-port="1" to-layer="4004" to-port="1" />
		<edge from-layer="4004" from-port="2" to-layer="4005" to-port="1" />
		<edge from-layer="4005" from-port="2" to-layer="4008" to-port="0" />
		<edge from-layer="4005" from-port="2" to-layer="4162" to-port="0" />
		<edge from-layer="4005" from-port="2" to-layer="4015" to-port="0" />
		<edge from-layer="4006" from-port="0" to-layer="4014" to-port="0" />
		<edge from-layer="4007" from-port="0" to-layer="4008" to-port="1" />
		<edge from-layer="4008" from-port="2" to-layer="4010" to-port="0" />
		<edge from-layer="4009" from-port="0" to-layer="4010" to-port="1" />
		<edge from-layer="4010" from-port="2" to-layer="4012" to-port="0" />
		<edge from-layer="4011" from-port="0" to-layer="4012" to-port="1" />
		<edge from-layer="4012" from-port="2" to-layer="4013" to-port="0" />
		<edge from-layer="4013" from-port="1" to-layer="4014" to-port="1" />
		<edge from-layer="4014" from-port="2" to-layer="4015" to-port="1" />
		<edge from-layer="4015" from-port="2" to-layer="4016" to-port="1" />
		<edge from-layer="4016" from-port="2" to-layer="4027" to-port="0" />
		<edge from-layer="4016" from-port="2" to-layer="4053" to-port="0" />
		<edge from-layer="4016" from-port="2" to-layer="4116" to-port="0" />
		<edge from-layer="4017" from-port="0" to-layer="4018" to-port="0" />
		<edge from-layer="4018" from-port="1" to-layer="4021" to-port="0" />
		<edge from-layer="4019" from-port="0" to-layer="4020" to-port="0" />
		<edge from-layer="4020" from-port="1" to-layer="4021" to-port="1" />
		<edge from-layer="4021" from-port="2" to-layer="4023" to-port="0" />
		<edge from-layer="4022" from-port="0" to-layer="4023" to-port="1" />
		<edge from-layer="4023" from-port="2" to-layer="4025" to-port="0" />
		<edge from-layer="4024" from-port="0" to-layer="4025" to-port="1" />
		<edge from-layer="4025" from-port="2" to-layer="4026" to-port="0" />
		<edge from-layer="4026" from-port="1" to-layer="4027" to-port="1" />
		<edge from-layer="4027" from-port="2" to-layer="4029" to-port="0" />
		<edge from-layer="4028" from-port="0" to-layer="4029" to-port="1" />
		<edge from-layer="4029" from-port="2" to-layer="4031" to-port="0" />
		<edge from-layer="4030" from-port="0" to-layer="4031" to-port="1" />
		<edge from-layer="4031" from-port="2" to-layer="4032" to-port="1" />
		<edge from-layer="4032" from-port="2" to-layer="4033" to-port="0" />
		<edge from-layer="4032" from-port="2" to-layer="4142" to-port="0" />
		<edge from-layer="4034" from-port="0" to-layer="4039" to-port="0" />
		<edge from-layer="4035" from-port="0" to-layer="4038" to-port="1" />
		<edge from-layer="4036" from-port="0" to-layer="4038" to-port="2" />
		<edge from-layer="4037" from-port="0" to-layer="4038" to-port="3" />
		<edge from-layer="4038" from-port="4" to-layer="4039" to-port="1" />
		<edge from-layer="4039" from-port="2" to-layer="4040" to-port="0" />
		<edge from-layer="4040" from-port="1" to-layer="4042" to-port="0" />
		<edge from-layer="4041" from-port="0" to-layer="4042" to-port="2" />
		<edge from-layer="4042" from-port="3" to-layer="4075" to-port="0" />
		<edge from-layer="4043" from-port="0" to-layer="4044" to-port="0" />
		<edge from-layer="4044" from-port="1" to-layer="4047" to-port="0" />
		<edge from-layer="4045" from-port="0" to-layer="4046" to-port="0" />
		<edge from-layer="4046" from-port="1" to-layer="4047" to-port="1" />
		<edge from-layer="4047" from-port="2" to-layer="4049" to-port="0" />
		<edge from-layer="4048" from-port="0" to-layer="4049" to-port="1" />
		<edge from-layer="4049" from-port="2" to-layer="4051" to-port="0" />
		<edge from-layer="4050" from-port="0" to-layer="4051" to-port="1" />
		<edge from-layer="4051" from-port="2" to-layer="4052" to-port="0" />
		<edge from-layer="4052" from-port="1" to-layer="4053" to-port="1" />
		<edge from-layer="4053" from-port="2" to-layer="4055" to-port="0" />
		<edge from-layer="4054" from-port="0" to-layer="4055" to-port="1" />
		<edge from-layer="4055" from-port="2" to-layer="4057" to-port="0" />
		<edge from-layer="4056" from-port="0" to-layer="4057" to-port="1" />
		<edge from-layer="4057" from-port="2" to-layer="4058" to-port="0" />
		<edge from-layer="4057" from-port="2" to-layer="4071" to-port="0" />
		<edge from-layer="4057" from-port="2" to-layer="4063" to-port="0" />
		<edge from-layer="4058" from-port="2" to-layer="4074" to-port="0" />
		<edge from-layer="4059" from-port="0" to-layer="4063" to-port="1" />
		<edge from-layer="4060" from-port="0" to-layer="4063" to-port="2" />
		<edge from-layer="4061" from-port="0" to-layer="4063" to-port="3" />
		<edge from-layer="4062" from-port="0" to-layer="4063" to-port="4" />
		<edge from-layer="4063" from-port="5" to-layer="4066" to-port="0" />
		<edge from-layer="4064" from-port="0" to-layer="4065" to-port="0" />
		<edge from-layer="4065" from-port="1" to-layer="4066" to-port="1" />
		<edge from-layer="4066" from-port="2" to-layer="4072" to-port="0" />
		<edge from-layer="4067" from-port="0" to-layer="4071" to-port="1" />
		<edge from-layer="4068" from-port="0" to-layer="4071" to-port="2" />
		<edge from-layer="4069" from-port="0" to-layer="4071" to-port="3" />
		<edge from-layer="4070" from-port="0" to-layer="4071" to-port="4" />
		<edge from-layer="4071" from-port="5" to-layer="4072" to-port="1" />
		<edge from-layer="4072" from-port="2" to-layer="4073" to-port="0" />
		<edge from-layer="4073" from-port="2" to-layer="4074" to-port="1" />
		<edge from-layer="4074" from-port="2" to-layer="4075" to-port="1" />
		<edge from-layer="4075" from-port="2" to-layer="4138" to-port="0" />
		<edge from-layer="4075" from-port="2" to-layer="4076" to-port="0" />
		<edge from-layer="4105" from-port="0" to-layer="4221" to-port="0" />
		<edge from-layer="4106" from-port="0" to-layer="4107" to-port="0" />
		<edge from-layer="4107" from-port="1" to-layer="4110" to-port="0" />
		<edge from-layer="4108" from-port="0" to-layer="4109" to-port="0" />
		<edge from-layer="4109" from-port="1" to-layer="4110" to-port="1" />
		<edge from-layer="4110" from-port="2" to-layer="4112" to-port="0" />
		<edge from-layer="4111" from-port="0" to-layer="4112" to-port="1" />
		<edge from-layer="4112" from-port="2" to-layer="4114" to-port="0" />
		<edge from-layer="4113" from-port="0" to-layer="4114" to-port="1" />
		<edge from-layer="4114" from-port="2" to-layer="4115" to-port="0" />
		<edge from-layer="4115" from-port="1" to-layer="4116" to-port="1" />
		<edge from-layer="4116" from-port="2" to-layer="4118" to-port="0" />
		<edge from-layer="4117" from-port="0" to-layer="4118" to-port="1" />
		<edge from-layer="4118" from-port="2" to-layer="4120" to-port="0" />
		<edge from-layer="4119" from-port="0" to-layer="4120" to-port="1" />
		<edge from-layer="4120" from-port="2" to-layer="4121" to-port="0" />
		<edge from-layer="4120" from-port="2" to-layer="4134" to-port="0" />
		<edge from-layer="4120" from-port="2" to-layer="4126" to-port="0" />
		<edge from-layer="4121" from-port="2" to-layer="4137" to-port="0" />
		<edge from-layer="4122" from-port="0" to-layer="4126" to-port="1" />
		<edge from-layer="4123" from-port="0" to-layer="4126" to-port="2" />
		<edge from-layer="4124" from-port="0" to-layer="4126" to-port="3" />
		<edge from-layer="4125" from-port="0" to-layer="4126" to-port="4" />
		<edge from-layer="4126" from-port="5" to-layer="4129" to-port="0" />
		<edge from-layer="4127" from-port="0" to-layer="4128" to-port="0" />
		<edge from-layer="4128" from-port="1" to-layer="4129" to-port="1" />
		<edge from-layer="4129" from-port="2" to-layer="4135" to-port="0" />
		<edge from-layer="4130" from-port="0" to-layer="4134" to-port="1" />
		<edge from-layer="4131" from-port="0" to-layer="4134" to-port="2" />
		<edge from-layer="4132" from-port="0" to-layer="4134" to-port="3" />
		<edge from-layer="4133" from-port="0" to-layer="4134" to-port="4" />
		<edge from-layer="4134" from-port="5" to-layer="4135" to-port="1" />
		<edge from-layer="4135" from-port="2" to-layer="4136" to-port="0" />
		<edge from-layer="4136" from-port="2" to-layer="4137" to-port="1" />
		<edge from-layer="4137" from-port="2" to-layer="4146" to-port="0" />
		<edge from-layer="4138" from-port="2" to-layer="4139" to-port="0" />
		<edge from-layer="4139" from-port="2" to-layer="4141" to-port="0" />
		<edge from-layer="4140" from-port="0" to-layer="4141" to-port="1" />
		<edge from-layer="4141" from-port="2" to-layer="4146" to-port="1" />
		<edge from-layer="4142" from-port="2" to-layer="4143" to-port="0" />
		<edge from-layer="4143" from-port="2" to-layer="4145" to-port="0" />
		<edge from-layer="4144" from-port="0" to-layer="4145" to-port="1" />
		<edge from-layer="4145" from-port="2" to-layer="4146" to-port="2" />
		<edge from-layer="4146" from-port="5" to-layer="4148" to-port="0" />
		<edge from-layer="4147" from-port="0" to-layer="4148" to-port="1" />
		<edge from-layer="4148" from-port="2" to-layer="4150" to-port="0" />
		<edge from-layer="4149" from-port="0" to-layer="4150" to-port="1" />
		<edge from-layer="4150" from-port="2" to-layer="4161" to-port="0" />
		<edge from-layer="4151" from-port="0" to-layer="4152" to-port="0" />
		<edge from-layer="4152" from-port="1" to-layer="4155" to-port="0" />
		<edge from-layer="4153" from-port="0" to-layer="4154" to-port="0" />
		<edge from-layer="4154" from-port="1" to-layer="4155" to-port="1" />
		<edge from-layer="4155" from-port="2" to-layer="4157" to-port="0" />
		<edge from-layer="4156" from-port="0" to-layer="4157" to-port="1" />
		<edge from-layer="4157" from-port="2" to-layer="4159" to-port="0" />
		<edge from-layer="4158" from-port="0" to-layer="4159" to-port="1" />
		<edge from-layer="4159" from-port="2" to-layer="4160" to-port="0" />
		<edge from-layer="4160" from-port="1" to-layer="4161" to-port="1" />
		<edge from-layer="4161" from-port="2" to-layer="4162" to-port="1" />
		<edge from-layer="4162" from-port="2" to-layer="4166" to-port="0" />
		<edge from-layer="4162" from-port="2" to-layer="4173" to-port="0" />
		<edge from-layer="4162" from-port="2" to-layer="4210" to-port="0" />
		<edge from-layer="4163" from-port="0" to-layer="4174" to-port="0" />
		<edge from-layer="4164" from-port="0" to-layer="4172" to-port="0" />
		<edge from-layer="4165" from-port="0" to-layer="4166" to-port="1" />
		<edge from-layer="4166" from-port="2" to-layer="4168" to-port="0" />
		<edge from-layer="4167" from-port="0" to-layer="4168" to-port="1" />
		<edge from-layer="4168" from-port="2" to-layer="4170" to-port="0" />
		<edge from-layer="4169" from-port="0" to-layer="4170" to-port="1" />
		<edge from-layer="4170" from-port="2" to-layer="4171" to-port="0" />
		<edge from-layer="4171" from-port="1" to-layer="4172" to-port="1" />
		<edge from-layer="4172" from-port="2" to-layer="4173" to-port="1" />
		<edge from-layer="4173" from-port="2" to-layer="4174" to-port="1" />
		<edge from-layer="4174" from-port="2" to-layer="4197" to-port="0" />
		<edge from-layer="4174" from-port="2" to-layer="4185" to-port="0" />
		<edge from-layer="4175" from-port="0" to-layer="4176" to-port="0" />
		<edge from-layer="4176" from-port="1" to-layer="4179" to-port="0" />
		<edge from-layer="4177" from-port="0" to-layer="4178" to-port="0" />
		<edge from-layer="4178" from-port="1" to-layer="4179" to-port="1" />
		<edge from-layer="4179" from-port="2" to-layer="4181" to-port="0" />
		<edge from-layer="4180" from-port="0" to-layer="4181" to-port="1" />
		<edge from-layer="4181" from-port="2" to-layer="4183" to-port="0" />
		<edge from-layer="4182" from-port="0" to-layer="4183" to-port="1" />
		<edge from-layer="4183" from-port="2" to-layer="4184" to-port="0" />
		<edge from-layer="4184" from-port="1" to-layer="4185" to-port="1" />
		<edge from-layer="4185" from-port="2" to-layer="4186" to-port="0" />
		<edge from-layer="4186" from-port="1" to-layer="4198" to-port="0" />
		<edge from-layer="4187" from-port="0" to-layer="4188" to-port="0" />
		<edge from-layer="4188" from-port="1" to-layer="4191" to-port="0" />
		<edge from-layer="4189" from-port="0" to-layer="4190" to-port="0" />
		<edge from-layer="4190" from-port="1" to-layer="4191" to-port="1" />
		<edge from-layer="4191" from-port="2" to-layer="4193" to-port="0" />
		<edge from-layer="4192" from-port="0" to-layer="4193" to-port="1" />
		<edge from-layer="4193" from-port="2" to-layer="4195" to-port="0" />
		<edge from-layer="4194" from-port="0" to-layer="4195" to-port="1" />
		<edge from-layer="4195" from-port="2" to-layer="4196" to-port="0" />
		<edge from-layer="4196" from-port="1" to-layer="4197" to-port="1" />
		<edge from-layer="4197" from-port="2" to-layer="4198" to-port="1" />
		<edge from-layer="4198" from-port="2" to-layer="4209" to-port="0" />
		<edge from-layer="4199" from-port="0" to-layer="4200" to-port="0" />
		<edge from-layer="4200" from-port="1" to-layer="4203" to-port="0" />
		<edge from-layer="4201" from-port="0" to-layer="4202" to-port="0" />
		<edge from-layer="4202" from-port="1" to-layer="4203" to-port="1" />
		<edge from-layer="4203" from-port="2" to-layer="4205" to-port="0" />
		<edge from-layer="4204" from-port="0" to-layer="4205" to-port="1" />
		<edge from-layer="4205" from-port="2" to-layer="4207" to-port="0" />
		<edge from-layer="4206" from-port="0" to-layer="4207" to-port="1" />
		<edge from-layer="4207" from-port="2" to-layer="4208" to-port="0" />
		<edge from-layer="4208" from-port="1" to-layer="4209" to-port="1" />
		<edge from-layer="4209" from-port="2" to-layer="4210" to-port="1" />
		<edge from-layer="4210" from-port="2" to-layer="4213" to-port="0" />
		<edge from-layer="4210" from-port="2" to-layer="4220" to-port="0" />
		<edge from-layer="4211" from-port="0" to-layer="4219" to-port="0" />
		<edge from-layer="4212" from-port="0" to-layer="4213" to-port="1" />
		<edge from-layer="4213" from-port="2" to-layer="4215" to-port="0" />
		<edge from-layer="4214" from-port="0" to-layer="4215" to-port="1" />
		<edge from-layer="4215" from-port="2" to-layer="4217" to-port="0" />
		<edge from-layer="4216" from-port="0" to-layer="4217" to-port="1" />
		<edge from-layer="4217" from-port="2" to-layer="4218" to-port="0" />
		<edge from-layer="4218" from-port="1" to-layer="4219" to-port="1" />
		<edge from-layer="4219" from-port="2" to-layer="4220" to-port="1" />
		<edge from-layer="4220" from-port="2" to-layer="4221" to-port="1" />
		<edge from-layer="4221" from-port="2" to-layer="4230" to-port="0" />
		<edge from-layer="4222" from-port="0" to-layer="4223" to-port="0" />
		<edge from-layer="4223" from-port="1" to-layer="4226" to-port="0" />
		<edge from-layer="4224" from-port="0" to-layer="4225" to-port="0" />
		<edge from-layer="4225" from-port="1" to-layer="4226" to-port="1" />
		<edge from-layer="4226" from-port="2" to-layer="4228" to-port="0" />
		<edge from-layer="4227" from-port="0" to-layer="4228" to-port="1" />
		<edge from-layer="4228" from-port="2" to-layer="4229" to-port="0" />
		<edge from-layer="4229" from-port="1" to-layer="4230" to-port="1" />
		<edge from-layer="4230" from-port="2" to-layer="4231" to-port="0" />
	</edges>
	<rt_info>
		<Runtime_version value="2025.4.1-20426-82bbf0292c5-releases/2025/4" />
		<conversion_parameters>
			<framework value="pytorch" />
			<is_python_object value="True" />
		</conversion_parameters>
		<nncf>
			<friendly_names_were_updated value="True" />
			<version value="2.19.0" />
			<weight_compression>
				<advanced_parameters value="{'statistics_path': None, 'lora_adapter_rank': 256, 'group_size_fallback_mode': 'error', 'min_adjusted_group_size': 32, 'awq_params': {'subset_size': 32, 'percent_to_apply': 0.002, 'alpha_min': 0.0, 'alpha_max': 1.0, 'steps': 100, 'prefer_data_aware_scaling': True}, 'scale_estimation_params': {'subset_size': 64, 'initial_steps': 5, 'scale_steps': 5, 'weight_penalty': -1.0}, 'gptq_params': {'damp_percent': 0.1, 'block_size': 128, 'subset_size': 128}, 'lora_correction_params': {'adapter_rank': 8, 'num_iterations': 3, 'apply_regularization': True, 'subset_size': 128, 'use_int8_adapters': True}, 'backend_params': {}, 'codebook': None}" />
				<all_layers value="False" />
				<awq value="True" />
				<backup_mode value="int8_asym" />
				<compression_format value="dequantize" />
				<gptq value="False" />
				<group_size value="64" />
				<ignored_scope value="[]" />
				<lora_correction value="False" />
				<mode value="int4_asym" />
				<ratio value="1.0" />
				<scale_estimation value="False" />
				<sensitivity_metric value="weight_quantization_error" />
			</weight_compression>
		</nncf>
		<optimum>
			<nncf_version value="2.19.0" />
			<optimum_intel_version value="1.27.0" />
			<optimum_version value="2.1.0" />
			<pytorch_version value="2.9.1" />
			<transformers_version value="4.57.3" />
		</optimum>
		<runtime_options>
			<ACTIVATIONS_SCALE_FACTOR value="8.0" />
		</runtime_options>
	</rt_info>
</net>
